weights/quantization/FaceDetector_quant.onnx (onnx, 575631 bytes, 112 tensors)

ClassHead.0.conv1x1.bias f4 [4]
000000 30 9f 24 3f e7 3f 0e bf fa 6f 3d 3f 0a ef 2d bf
       0.643054 -0.5556626 0.7399899 -0.6794287

ClassHead.1.conv1x1.bias f4 [4]
000000 bb 95 0b 3f 13 6f 04 bf 6b 2b 2b 3f 8d 6c 31 bf
       0.54525346 -0.51731986 0.66863126 -0.6930626

ClassHead.2.conv1x1.bias f4 [4]
000000 7d 66 06 3f e0 1a f8 be ef 19 0d 3f c0 c2 1f bf
       0.52500135 -0.48458004 0.55117697 -0.6240654

BboxHead.0.conv1x1.bias f4 [8]
000000 77 c3 5c 3d a2 52 9e bd b5 6b d1 bd 9b 15 de 3c
       0.053897347 -0.07730605 -0.102256216 0.027109912
000010 58 c4 01 3c 03 a3 a5 bd 34 32 d3 be fb 74 97 3b
       0.007920347 -0.08087733 -0.4124924 0.0046220995

BboxHead.1.conv1x1.bias f4 [8]
000000 c6 40 80 bd 3e 98 13 be 7e e0 a7 3c e6 bc 85 bc
       -0.062623546 -0.14413545 0.020492788 -0.016325425
000010 db c4 a7 bd f8 c4 67 be 38 92 ab be fb c2 95 be
       -0.08191844 -0.22633731 -0.33509994 -0.2925032

BboxHead.2.conv1x1.bias f4 [8]
000000 ea 98 96 3d ff 7f 36 be 81 40 1a be 05 fa 22 be
       0.07353385 -0.17822264 -0.15063669 -0.15915687
000010 37 40 42 3d a8 36 ec bd ae 8f 14 bf 2a 17 d3 be
       0.04742452 -0.11533862 -0.5803174 -0.4122861

LandmarkHead.0.conv1x1.bias f4 [20]
000000 ac 2e 8e bd 3b 7d 42 be 36 17 d6 3d 99 95 3b be
       -0.06942496 -0.18993084 0.10453646 -0.18318786
000010 22 5f fd bc 87 92 c4 3c fa aa d7 bd 41 30 56 3e
       -0.030929152 0.023995651 -0.10530658 0.20916845
000020 81 25 44 3e 82 9f 51 3e 0d df 6d be 6c a5 85 be
       0.19154932 0.20471004 -0.23229618 -0.2610277
000030 38 9e 8b 3e 92 2d 86 be eb ad 84 3d a9 35 34 bd
       0.2726915 -0.26206642 0.06478485 -0.043996487
000040 cb 57 5f bd 26 98 ee 3e fa f0 96 3e 44 8b ed 3e
       -0.054527085 0.46600455 0.29480726 0.46395314

LandmarkHead.1.conv1x1.bias f4 [20]
000000 46 07 f5 bd 95 13 18 be 4e f7 c6 3c 63 9f a4 bd
       -0.11964278 -0.1485122 0.024287846 -0.08038213
000010 58 c4 41 3d bb 0b f6 bb 3c fb 93 bd 3b 37 67 3e
       0.04730639 -0.0075087226 -0.072256535 0.22579663
000020 74 10 54 bc 6f c7 2d 3e 59 da 38 be 27 05 38 be
       -0.012943376 0.16970609 -0.18052043 -0.17970715
000030 21 c6 d6 3d 1b 1b 0c be eb c7 bc 3c 1d 91 c5 39
       0.10487009 -0.13682215 0.023044547 0.00037682886
000040 4c 54 f9 bd 6a a4 d3 3e c7 63 26 3e 97 00 d8 3e
       -0.121742815 0.41336375 0.16249 0.4218795

LandmarkHead.2.conv1x1.bias f4 [20]
000000 cd 7a 13 be 94 58 55 be 6b 94 1f 3e 7d b7 1b be
       -0.14402314 -0.20834571 0.1558396 -0.15206714
000010 74 75 88 3d dd 6f 71 3d 32 82 00 be 46 91 a4 3e
       0.066630274 0.05894457 -0.12549666 0.32142085
000020 57 80 44 3e 9b ce b1 3e 8c 6e 14 be 43 97 3a be
       0.19189583 0.3472794 -0.14495295 -0.18221764
000030 d8 d2 31 3e 6e b5 40 be 50 ae 72 3d a7 d8 f7 3d
       0.17365587 -0.1881921 0.05924827 0.1210187
000040 97 25 38 be 0d 71 53 3e 15 ce 4e 3e be 03 42 3e
       -0.1798309 0.20648594 0.20195802 0.1894674

onnx::Conv_579 f4 [8]
000000 0c dc 94 3f cf b8 cb be c5 bf 53 40 72 84 97 bf
       1.1629653 -0.39789435 3.3085797 -1.1837294
000010 bc 97 52 40 c9 23 4e 3f 86 f4 bf be f3 ef 27 bf
       3.2905111 0.80523354 -0.37491244 -0.6560051

onnx::Conv_582 f4 [8]
000000 5a 2c 7e bf 91 51 12 bf ec cf 40 3f e4 5b 55 3e
       -0.99286425 -0.5715571 0.75317264 0.20835835
000010 1d 67 43 3f c6 38 26 40 52 4e 9c be 5b a3 e0 be
       0.76329213 2.5972152 -0.30528504 -0.4387463

onnx::Conv_585 f4 [16]
000000 66 f7 cf 3f 0e f2 ee bf e0 11 1a 3d 0a b3 1a 40
       1.6247375 -1.8667619 0.037614703 2.4171777
000010 80 fd ee 3f 49 c0 7f 3f 31 c9 ca 3f 2f e7 96 3e
       1.8671112 0.9990278 1.5842649 0.29473254
000020 3f 0f 21 40 05 d8 4f 3f d8 e9 20 3e 3c 9a a7 bd
       2.5165555 0.81188995 0.15714204 -0.08183715
000030 54 93 b6 3f d8 dd 89 bd ba 47 b9 be f1 05 e9 3f
       1.4263711 -0.067317665 -0.36187536 1.8204938

onnx::Conv_588 f4 [16]
000000 e6 bd 1c 40 7f 72 1a 3e 19 d0 1d 3f 7d 7c c2 3f
       2.4490905 0.1508274 0.61645657 1.5194241
000010 05 f4 67 3f 00 57 00 3f 20 dc bd bd e0 cc a7 3c
       0.9060672 0.5013275 -0.09270501 0.020483434
000020 40 cb dd 3f 07 c1 46 3e 83 a3 41 40 00 2c 9a 3b
       1.7327652 0.19409572 3.025605 0.0047049522
000030 38 8a dd 3c d3 f8 07 3e 20 96 48 3c bb f5 01 40
       0.027043447 0.13278513 0.012242824 2.0306232

onnx::Conv_591 f4 [32]
000000 b3 e2 11 40 d0 3c 43 be 51 2f 91 3f 9b 18 05 bf
       2.2794616 -0.19066167 1.1342565 -0.5199067
000010 2b 2b aa 3f 18 b6 cc bf 22 2f 96 be de d0 5b 3f
       1.3294424 -1.5993071 -0.29332834 0.8586558
000020 ac 30 2b 3f 40 24 c6 3c ff c8 6e 3f 37 9f 19 3f
       0.6687114 0.024187207 0.93275446 0.6000857
000030 cf dd 72 3f e8 e6 3b 3f f5 b2 dd 3e 80 a0 1e 3e
       0.94869703 0.7339921 0.43300596 0.15490913
000040 de aa 39 3e d6 14 58 3f 66 f8 3f be 35 0b f7 3f
       0.18131587 0.84406793 -0.187471 1.9300295
000050 23 cf c5 be f8 d4 55 be 58 ef 23 bf 5a 79 1d 40
       -0.38634595 -0.20882022 -0.64037085 2.4605317
000060 0c da 04 bf 30 76 88 bc cf 70 68 3f ba e0 82 3f
       -0.51895213 -0.016657919 0.9079713 1.0224831
000070 5c 2c 08 be 7b 3d 60 bf 77 db 0f be ce db 8b 3f
       -0.13298172 -0.8759381 -0.14048563 1.0926454

onnx::Conv_594 f4 [32]
000000 54 96 69 3e e3 62 64 3f f8 4a 43 3f cf 1d a0 3e
       0.22811252 0.8921339 0.7628627 0.31272742
000010 d4 a1 27 3e 11 61 0f bf 98 d1 67 3f 4a 50 41 3f
       0.16370326 -0.56007487 0.9055419 0.75513136
000020 26 06 d2 3f 9d aa 34 3f c4 e1 ac 3e 7c 49 33 be
       1.6408126 0.70572835 0.33765996 -0.17508501
000030 a6 9d 91 3f ec 06 8e 3f 00 d4 71 bc 0b de a2 3e
       1.1376235 1.1095862 -0.014760017 0.3181003
000040 b3 a8 03 bf c0 a3 1f 3d f7 9d 88 bd e8 bc e3 3c
       -0.5142929 0.038974524 -0.066707544 0.027800038
000050 4e d6 82 3f c9 d9 1f 40 a3 70 1d bf fb 15 02 3f
       1.0221651 2.4976676 -0.61499995 0.5081479
000060 e6 e7 4f 3e 60 81 8d 3e 76 03 66 3f 52 10 cd 3f
       0.20303306 0.27637768 0.8984903 1.6020606
000070 d2 2a cc be f8 05 9c 3f 44 fa 4f 3d 34 74 ed bc
       -0.3987642 1.2189322 0.05077578 -0.028986074

onnx::Conv_597 f4 [32]
000000 34 0a 95 be 93 ce 02 3f b8 bc 97 3f 18 fa 53 3f
       -0.29109347 0.5109646 1.1854467 0.8280349
000010 4c 30 cb 3f 60 19 e8 3f 3c 4a ac 3f c8 32 61 3f
       1.5874114 1.8132744 1.3460155 0.8796811
000020 3c cd 32 be 43 11 90 3e ec 7f 7d 3e 97 b8 8c 3e
       -0.17461103 0.2813817 0.2475583 0.2748458
000030 81 36 b3 be a6 84 62 3f 12 28 cc bf 42 f0 d9 bf
       -0.3500252 0.88483655 -1.5949728 -1.7026446
000040 8a 0d f6 3f da b4 35 3f 4f f4 37 bf b4 07 61 be
       1.9222882 0.7097908 -0.7185716 -0.21975595
000050 76 37 f6 be 03 61 b2 be 98 03 78 3d da 64 bd 3e
       -0.48089188 -0.3483964 0.060550302 0.36991006
000060 b3 60 28 3f 78 f6 e2 3e f0 33 64 3f 7e 36 cd bd
       0.6577255 0.44328666 0.8914175 -0.10020159
000070 c4 7c db bf b7 21 34 3f 01 68 05 3f 5f 26 0c 3f
       -1.714745 0.70363945 0.5211182 0.5474605

onnx::Conv_600 f4 [32]
000000 df a4 b8 bd f2 e7 5b 3f 30 fe c6 3d 64 7c 68 3d
       -0.09015822 0.85900795 0.09716451 0.056759253
000010 91 c3 54 3e e0 dc da 3f 00 ee 5c bc 03 d2 99 3f
       0.20777728 1.7098656 -0.013484478 1.2017215
000020 e6 07 a6 3f 1a 50 5e 3f 12 3e 63 40 fc b3 4d be
       1.297116 0.86840975 3.5506635 -0.2008819
000030 60 27 96 3d ea 7c 51 be a8 b8 cb 3d 80 dc 1e 3c
       0.07331729 -0.20457807 0.0994733 0.009696126
000040 3c 05 d4 3d 24 1e bd 3f 04 d1 29 3e 4d 22 4f 3f
       0.10352561 1.4774823 0.1658364 0.80911714
000050 10 bf e5 bd 70 09 3c 3d b8 0d 92 3e 06 18 bb 3d
       -0.11218083 0.045907438 0.28526092 0.091354415
000060 f4 53 12 40 52 a5 f3 be 1c 75 aa 3f 6b dd 8c 3f
       2.286374 -0.47587067 1.3316989 1.1005071
000070 78 6d 49 3d bf ff 10 3e 60 db 6b be ce ad bb be
       0.049176663 0.1416006 -0.23032904 -0.3665604

onnx::Conv_603 f4 [64]
000000 fe 19 21 3f 00 d3 88 3a 6e cf 03 3f 4d 9d 13 3f
       0.62930286 0.001043886 0.5148839 0.57661897
000010 70 1d ef 3e 6c 60 0c 3f 1d c9 3a 3f 2e 46 a5 3e
       0.46702147 0.5483463 0.72963125 0.32280105
000020 4b db ea 3e 40 85 d7 3e fe c4 32 3e b0 b3 7a 3d
       0.45870432 0.4209385 0.17457959 0.06120652
000030 be 17 4c 3f 24 5b 78 3e 28 44 54 3d 78 5d 79 3d
       0.7972373 0.24253517 0.05182281 0.060880154
000040 e5 9e 22 3f 3a 35 a9 3e d0 d7 61 be 9e 16 7a be
       0.63523704 0.3304842 -0.22054982 -0.2442269
000050 cf 8b 29 3f 8f b8 07 3f 40 af 3b bc 85 0c e1 3e
       0.66228956 0.5301599 -0.011455357 0.43954864
000060 16 e7 19 3f fa 04 a2 3e b0 10 a5 3e 78 aa 22 3d
       0.60118234 0.31644422 0.32239294 0.039713353
000070 36 f0 c1 3e 0e c6 d4 be e0 3b ef 3e 24 9e 83 be
       0.3787858 -0.41557354 0.46725368 -0.2570659
000080 f5 f8 b1 3e 59 18 e5 3e 48 b7 fd 3d b2 6a 45 3f
       0.34760252 0.44745138 0.12388474 0.7711593
000090 24 c2 5b 3d d2 cb ad 3e 88 51 ab 3e 82 5a 01 3f
       0.053651944 0.33944565 0.3346064 0.5052873
0000a0 49 06 58 3f 42 2d 38 be 40 3a 88 3b e1 65 d2 3e
       0.8438459 -0.17986014 0.0041573346 0.41093352
0000b0 03 df 6a 3f d3 00 69 3f 1b a2 3b 3f 18 76 1c bd
       0.9174654 0.9101688 0.7329423 -0.03819856
0000c0 aa 7d 16 3f fc a9 89 3e c0 ec 26 3f 1b 26 07 3f
       0.587855 0.268875 0.65205 0.5279252
0000d0 84 04 3d 3f 44 70 95 bd 45 09 a1 3e be 20 e0 3e
       0.73835015 -0.072968036 0.31452385 0.4377498
0000e0 ca 42 df 3e c6 07 14 3f c9 96 5f 3f f9 08 18 3f
       0.43605644 0.5782436 0.87339455 0.5938869
0000f0 ce 6f a8 3e cb 2c 8c 3e 40 7e af bb 5a 32 f6 3d
       0.328978 0.27377924 -0.0053556263 0.120213225

onnx::Conv_606 f4 [64]
000000 27 7b 59 3f 41 56 12 3f 65 6c 73 bc 78 7e ac 3f
       0.8495354 0.57162863 -0.014857386 1.3476095
000010 66 ea 44 be d9 f7 d0 be 90 5d c4 3f 28 92 2a 3c
       -0.19230041 -0.40814093 1.5341053 0.010410823
000020 9c ee db be ce 41 67 bd 09 7d 7b 3d ae cc 94 be
       -0.42955482 -0.05645924 0.06139854 -0.29062408
000030 94 41 55 3d 87 58 35 3f ec bc e2 bd 60 eb b8 3c
       0.052064493 0.70838207 -0.1107119 0.022573173
000040 02 0c 7c bd fc 54 2a 3e 96 e2 e1 be 10 ef ac 3d
       -0.06153489 0.16633981 -0.44118184 0.08444035
000050 80 c7 99 3d 4a d7 db bd c1 6d 9b 3e df e8 9f 3e
       0.07508755 -0.107344225 0.30357173 0.31232354
000060 64 bd 83 3f 94 17 82 3f 27 5e bd 3f f8 36 2e 3f
       1.0292172 1.0163445 1.4794358 0.68052626
000070 a9 e1 9e be 49 59 a2 be a0 5a a8 bc 89 b7 86 be
       -0.3103154 -0.31708744 -0.020551026 -0.263119
000080 bc 02 9f 3f 7a 8f 99 3f 71 87 d4 3f d7 c4 99 3f
       1.242271 1.199691 1.6603833 1.2013196
000090 f8 b7 bb be 30 18 29 be 34 84 08 bc 49 05 e1 3f
       -0.36663795 -0.16513133 -0.008332301 1.7579738
0000a0 2e 9d 52 3e 28 61 81 3d 0d 43 06 3e 48 c7 7b 3f
       0.20567772 0.06317359 0.13111515 0.98350954
0000b0 ed 92 3d 3e 77 2d 0e 3f 0a 08 03 3e 38 f3 26 bd
       0.18513079 0.55538124 0.12796035 -0.040759295
0000c0 79 2e f9 bd e6 79 60 3f 20 66 03 3c c0 67 09 bd
       -0.12167067 0.87686 0.008019954 -0.03354621
0000d0 f4 06 aa bd 10 0a e3 3e 0f fc cb bd b2 a2 c0 3f
       -0.083021075 0.44343615 -0.09960186 1.5049651
0000e0 51 a5 d2 3e 29 a5 37 be 4c 7b 33 3f da 58 e2 3f
       0.4114175 -0.17934097 0.7011001 1.7683365
0000f0 97 d5 e7 be 6e d6 ab bd d8 be 2b bd 92 b5 90 3f
       -0.45280144 -0.083905086 -0.04193005 1.1305411

onnx::Conv_609 f4 [64]
000000 4b a7 77 3e 34 cf a5 be c5 aa b5 3d f6 3f ae be
       0.24184911 -0.32384646 0.08870462 -0.34033173
000010 c0 f9 f2 3d 1e 35 18 be 80 6c 0a 3b ff da bc 3e
       0.11864042 -0.14864013 0.00211218 0.3688583
000020 0f 10 69 be e9 ac 4c 3e 0c c7 36 3e 08 d6 b2 bd
       -0.22760032 0.19987835 0.17849368 -0.087322295
000030 13 01 80 be 74 b7 4d 3e fc 5a ae be 68 25 0b bf
       -0.2500082 0.20089513 -0.3405379 -0.5435395
000040 7b b8 c5 3e 07 05 4b be 16 ea e3 be 91 3d 3c be
       0.3861731 -0.19826137 -0.4451453 -0.1838286
000050 37 1a 02 bf 8b a6 87 3e c4 f5 2a 3f 36 11 20 bf
       -0.5082125 0.2649425 0.6678126 -0.6252626
000060 48 7d c8 3c b5 74 2b 3f 8e e2 96 be 50 53 0e 3e
       0.024473801 0.66974956 -0.29469723 0.13898969
000070 da eb 57 bf 3e f8 37 3f 66 0c 2d 3f ed db 51 3f
       -0.84344256 0.7186316 0.67597044 0.81976205
000080 6f 5e a1 3e 47 32 86 3e 6a 9a 8f 3e 01 86 01 bf
       0.3151736 0.26210234 0.28047496 -0.505951
000090 94 f8 f1 3e c2 2b 8d 3e 66 99 a5 3d 01 1d d3 bd
       0.47259963 0.27572447 0.08085899 -0.103082664
0000a0 6b fc 2c 3f ee 2a f7 be bc 6c 28 3e 9d 0c 0c 3d
       0.6757266 -0.4827494 0.16447729 0.034191716
0000b0 30 94 1e 3c d7 53 a6 3d 05 35 6a 3e 64 bb 17 3d
       0.009678885 0.0812146 0.22871788 0.037043944
0000c0 77 b3 f1 3d 08 22 db 3e e4 2e 17 3e 63 79 d2 3d
       0.11801808 0.427994 0.14763981 0.10277059
0000d0 0d fe cd 3e 98 3d 2b 3e 8c b6 aa bf 62 d9 6b 3e
       0.40232888 0.16722715 -1.3336959 0.23032144
0000e0 f0 ac 3c 3f f3 dd 11 be af 32 fe 3e 85 55 1a 3f
       0.7370138 -0.14244823 0.49648044 0.6028674
0000f0 90 2b 91 be 4f 24 f8 3e 9d 45 10 bf d2 04 a1 3e
       -0.28353548 0.484652 -0.5635622 0.3144899

onnx::Conv_612 f4 [64]
000000 e1 c1 86 3f 9c 4f 8f bd f8 94 04 3d 42 52 48 3e
       1.0527917 -0.06997606 0.03236863 0.19562629
000010 7c 54 d0 3d 96 37 36 3d 0d b7 ee 3f 22 cd 64 be
       0.10172364 0.044486605 1.8649613 -0.22343877
000020 13 dd 8c 3e b0 bc 96 3d 47 3f 6f 3f 0c f9 8a 3f
       0.27512416 0.07360208 0.9345593 1.0857253
000030 f8 ed 43 3e fa 93 e9 3f 0d 42 94 3e 56 2d e0 3d
       0.19133747 1.8248284 0.28956643 0.10946147
000040 97 d3 8d be 98 cc b1 bc 08 5d 46 3d e0 2a 7c bd
       -0.27700493 -0.021704003 0.048428565 -0.061564326
000050 e6 7e 31 3e 94 fc a3 3e 27 92 70 3f 9c d3 fc 3d
       0.17333564 0.3202864 0.9397301 0.12345049
000060 80 4f 28 3c a2 f9 29 3e 60 62 b7 3d 88 84 57 3f
       0.0102728605 0.16599134 0.089543104 0.841866
000070 60 27 30 3c 14 dd cc 3e 0b d6 9f 3f 00 68 c6 3f
       0.010751575 0.4001242 1.2487196 1.5500488
000080 dc 69 8b 3f 4e ae aa 3f 87 7e 88 3f 08 49 97 3e
       1.0891681 1.3334444 1.0663613 0.29547906
000090 9d 74 ba 3d 77 fe 00 3e 36 fe 61 be 04 f4 ae 3d
       0.091042735 0.1259707 -0.2206963 0.08542636
0000a0 52 cc 29 bf 7e 6a 3c 3f 17 d7 37 3d f4 ee 35 3e
       -0.66327393 0.73599994 0.04488286 0.17766935
0000b0 0e 3f 57 3e 11 54 5d be d2 7a 39 3e 98 a1 fc 3c
       0.21020147 -0.216141 0.18113258 0.030838773
0000c0 ca 33 14 3e c4 03 e7 3d b0 a8 a1 bc b3 89 26 3f
       0.14472881 0.11280015 -0.019733757 0.6505386
0000d0 41 a3 a9 3f eb d3 9a 3f a0 14 4f bb 30 6a 91 bc
       1.3252946 1.2095922 -0.0031597987 -0.01775083
0000e0 4a ba 21 be 00 c8 8f 3b 7a 37 11 be c8 5b c9 bc
       -0.1579372 0.0043878555 -0.14181319 -0.024579898
0000f0 76 b6 cb 3d 92 ec 0d 40 cc 30 63 3d 7b d6 83 3f
       0.09946911 2.217564 0.05546646 1.0299829

onnx::Conv_615 f4 [128]
000000 3a 3a f2 bd 50 90 8c 3e 56 1e d7 3d 86 fd ae 3e
       -0.11827512 0.27453852 0.10503833 0.34177798
000010 05 e5 ac 3e b8 e6 28 bd 5c da 00 3e 7e 69 35 3e
       0.33768478 -0.041235656 0.12583297 0.17716023
000020 18 83 63 3e 2e 04 44 3e 20 e7 f4 bb 2b 88 d0 3e
       0.22217977 0.1914222 -0.0074738413 0.40728888
000030 ad 8d 42 3e cc 53 08 3d 97 e8 ec 3e 03 bc c1 3e
       0.18999358 0.03328304 0.46271202 0.37838754
000040 ba 82 a1 3e 95 f1 ca 3e fa 26 15 3e 9c 6c 2a be
       0.3154505 0.39637437 0.1456565 -0.16642994
000050 6b 7d 42 bf a0 f5 4d 3e 70 3c cc 3e 34 72 c5 3e
       -0.7597262 0.2011323 0.3988986 0.38563693
000060 33 b9 09 3e 7e 3a c3 3e 20 cc 93 3e ff 42 8c 3d
       0.13449554 0.38130563 0.28866673 0.06848716
000070 13 bc e5 3e c0 ea 5e bc 7f 78 37 be 06 79 28 3f
       0.44870052 -0.013605773 -0.1791706 0.6580967
000080 01 a8 db 3e fe d9 82 3e 0b 5c 96 3e c2 35 1c 3f
       0.42901614 0.2555694 0.29367098 0.6101953
000090 fe 88 33 be d2 61 9d 3e 26 c6 1c 3e 0f d0 de 3e
       -0.17532727 0.30738693 0.15309963 0.4351811
0000a0 34 ef 64 3e 30 b7 75 3e ca 9a cc 3e a4 7f 2d 3d
       0.22356874 0.23995662 0.39961845 0.042358056
0000b0 ca e5 0c 3e 77 80 c2 3e c9 1b 99 3e 40 1c 7b bc
       0.13759533 0.37988636 0.2990401 -0.01532656
0000c0 a6 96 cc 3e f8 f8 88 3e f6 e6 a7 3e 00 9c f2 3e
       0.39958686 0.26752448 0.32793397 0.47384644
0000d0 67 ab e4 3e 4c 63 c2 bd 70 54 f1 3e 98 a6 0e 3e
       0.4466202 -0.094915956 0.47134733 0.13930738
0000e0 37 51 fb 3e 2f 37 71 3e 3c 80 26 3f 23 22 80 3e
       0.490854 0.23556207 0.6503942 0.25026044
0000f0 1b 37 f6 3e 21 b4 a3 3e f7 8e 92 3e 8d c1 56 3e
       0.48088917 0.31973365 0.286247 0.20972271
000100 95 91 17 3f e7 35 a7 3e 6c 89 55 3e 38 8f 9b 3d
       0.59206516 0.32658312 0.20853204 0.07595676
000110 3e 9f ad be 5f a4 92 3e 0c 5f cf 3e 3f f2 17 3f
       -0.33910555 0.2864103 0.40502203 0.59354013
000120 15 33 f1 3e ab 4a d2 3e 30 b7 ca 3e 46 5a ed 3e
       0.47109285 0.41072592 0.39592886 0.46357936
000130 99 cd 2a 3f a2 b4 dd bd 00 85 95 3d c0 58 a1 be
       0.6671997 -0.108254686 0.07300758 -0.31513023
000140 ef 14 7a be 90 d7 0f 3e f3 fd 06 3f 70 05 4d bc
       -0.24422048 0.14047074 0.52731246 -0.012513503
000150 d0 c3 ad 3e 29 5a 34 3f fd ed eb 3e fa c5 04 3f
       0.33938456 0.70450073 0.46080008 0.5186459
000160 c5 2c 83 3e 40 97 cc bb 87 25 a3 3e 70 79 67 3e
       0.25620094 -0.0062436163 0.3186457 0.22604918
000170 8a 68 3a 3e 9e 23 79 3e 1c f7 98 3e 3a 30 73 3e
       0.18203941 0.24329993 0.2987603 0.23748866
000180 0c 71 c1 3e 85 98 7f 3e 8b 11 18 3e 20 32 d5 be
       0.3778156 0.24960525 0.14850442 -0.41639805
000190 50 7b 01 3d 32 a5 a6 3e 85 6b 80 3e 9c 25 8a 3e
       0.03161174 0.3254791 0.2508203 0.2698182
0001a0 ba 62 03 bf 51 34 4a 3f a4 e3 1e 3e 2c 33 69 3f
       -0.5132252 0.7898608 0.15516526 0.9109371
0001b0 4c 3a 61 3d 5a eb d7 3d 30 a6 58 3e 42 f8 fc 3e
       0.054987237 0.105429366 0.21157146 0.49408156
0001c0 0c b8 b0 3d d4 76 06 3f bc f0 8e 3e 10 6b 13 bc
       0.08628854 0.5252507 0.2791804 -0.008997694
0001d0 8b a1 9c 3e f0 b4 2f 3d 00 4e 9e 3d 26 24 8c 3e
       0.30591998 0.042897165 0.07729721 0.2737133
0001e0 ce b9 c1 3e a7 4b 1c 3d cd cc d1 3e 13 d5 0d 3e
       0.3783707 0.038158085 0.40976563 0.13850813
0001f0 e4 bc f2 3d ef fd d6 3e 75 15 91 3e e0 b8 36 3c
       0.11852434 0.4199061 0.28336683 0.011152476

onnx::Conv_618 f4 [128]
000000 77 ca bb be ae 98 0b bd 51 2e aa 3d 76 04 ff 3d
       -0.36677906 -0.034081154 0.083096154 0.12452023
000010 25 81 09 3e 40 00 8e 3e 72 67 4d bd 1c 11 1b 3d
       0.13428171 0.27734566 -0.05014748 0.037858114
000020 5c 10 81 3d 70 2c a7 3f 4f 0b 96 bd ec 32 6b 3f
       0.063019484 1.3060436 -0.07326376 0.91874576
000030 00 f8 59 3a 62 9d 85 be 54 32 fe 3e 9a 3c ec be
       0.0008314848 -0.26096636 0.49647772 -0.46139985
000040 6c 05 65 be 90 33 a6 3f ec 62 48 3d 7f 29 98 be
       -0.2236535 1.2984486 0.048922464 -0.2971916
000050 87 21 3f 3f 00 a5 54 bd fa 4a 8d 3f 54 60 c0 3e
       0.74660534 -0.05191517 1.1038506 0.37573493
000060 f9 09 94 3d 1e db f3 3b 35 cd f5 3c 66 9a 26 be
       0.07228465 0.0074418923 0.030005077 -0.16269836
000070 f0 4f 9a 3f ca 94 42 3f 90 95 0c 3d dc e1 29 3f
       1.2055645 0.76008284 0.03432232 0.6636026
000080 73 a2 51 3c d7 6f af bd 0b 4b 83 bd 8c 9e b5 bd
       0.012795079 -0.08566254 -0.06410798 -0.08868131
000090 ea ea 87 3e 63 10 99 3e 6d a6 a8 3d 16 57 89 3e
       0.26546413 0.29895315 0.08234868 0.26824254
0000a0 10 4f 01 3d 46 84 0b be 37 90 76 3e 54 85 83 3d
       0.03156954 -0.13624677 0.24078451 0.06421915
0000b0 64 56 9f bc 66 07 69 be 2f 5c ac be b0 ed 38 bf
       -0.019450374 -0.22756729 -0.3366408 -0.7223768
0000c0 e0 26 a7 bc 7e ac 36 3d 8a 5f f7 3c 03 e4 0d be
       -0.02040428 0.044598095 0.030196924 -0.13856511
0000d0 66 ed 89 bd fa f0 3e be 66 19 a0 3d e3 39 0f 3f
       -0.06734733 -0.18646613 0.07817344 0.55947703
0000e0 ce 44 c1 3f b4 c9 3d 3e 08 e7 89 3f 40 35 03 bf
       1.5099123 0.18533975 1.077363 -0.5125313
0000f0 0e ad a4 be 52 8e 6b bd 06 e5 e5 bd 75 47 56 3f
       -0.3216328 -0.057508774 -0.112253234 0.83702785
000100 f2 b2 54 3f de 41 ac 3d 10 2f 1a 3d 35 18 ab 3c
       0.8308555 0.08411001 0.03764254 0.020885566
000110 e8 2e 81 bd f4 8e 65 bd 0e 83 6e bd f4 df 30 3e
       -0.06307775 -0.056044534 -0.058230452 0.17272931
000120 3e d8 cb bc 38 be 55 3e d3 3d 07 3f 63 b9 2e be
       -0.024883386 0.20873344 0.5282871 -0.17062907
000130 12 a8 8e 3e 24 74 86 3e 4d 6f ca 3e 5f f9 96 be
       0.27862602 0.26260483 0.3953804 -0.2948713
000140 93 5b 17 bd 29 95 6f be 8c b9 ce 3e 5a 64 17 3f
       -0.036952566 -0.23396744 0.40375936 0.591375
000150 20 f1 e0 bc a0 00 37 3b 40 26 0a bb 49 ec 7f 3d
       -0.027458727 0.0027923957 -0.0021079928 0.0624812
000160 98 ca d1 3c 10 c3 8c bd b1 cf 00 bd b8 14 3e 3e
       0.0256093 -0.06873143 -0.03144807 0.18562591
000170 14 6b 85 3d 5f a7 32 bd b7 e3 48 bc 5b 9c 9c 3f
       0.06514564 -0.04361665 -0.012261323 1.2235216
000180 10 84 87 be b4 1d 17 3e cf 18 e6 3d 67 00 81 3f
       -0.26467943 0.14757425 0.112352006 1.0078248
000190 63 72 14 3f 0d 30 8c bd 5a cf 15 bf 50 6b b2 bc
       0.5798704 -0.068451025 -0.5851952 -0.021779686
0001a0 60 91 d4 bc 2c c8 07 3f c4 4b d0 bb 27 e5 22 3f
       -0.025948226 0.53039813 -0.006356688 0.6363091
0001b0 b3 be 89 bd 44 bb 83 be 6c 6b 2b bd c0 bd 6b be
       -0.06725826 -0.2572881 -0.041850492 -0.23021603
0001c0 78 2c a8 3e f2 49 3a 3e b3 12 46 bd e4 99 df 3b
       0.32846427 0.1819227 -0.048357677 0.006823765
0001d0 ef 1d 47 3e e5 eb ad bc 7b 47 81 3f 3f 90 04 3d
       0.19445013 -0.021230647 1.0099939 0.032364126
0001e0 d7 d1 8e 3d 08 6f 6c 3d 0b 25 81 3d 50 af 8a bc
       0.069736175 0.057723075 0.063058935 -0.016929299
0001f0 14 69 09 3f 1c c1 a1 3d 50 c9 c7 3d fc 8d 15 3e
       0.5367596 0.07898161 0.09755194 0.14604944

onnx::Conv_621 f4 [128]
000000 bb 97 8a 3e 2a b5 2c 3e 03 04 6a bd 30 4f 0c 3e
       0.27068886 0.16865984 -0.057132732 0.13702083
000010 6c 86 cd bc 60 b1 bd 3e 64 f8 b8 3e d0 2b 9d 3e
       -0.025088511 0.3704939 0.36127007 0.3069749
000020 88 7f 88 3d 6e 9b 31 be 5e e2 88 3e b4 46 4b 3e
       0.0666495 -0.17344448 0.26735204 0.1985119
000030 42 20 9f 3e 38 55 88 3e 13 28 63 3e 86 41 aa 3e
       0.31079298 0.26627517 0.22183256 0.33253115
000040 20 7b 59 3e 34 1b 37 3e 78 a2 d9 3c f0 be f5 bc
       0.21238375 0.17881471 0.026566729 -0.029998273
000050 5a 49 3f 3d b7 95 b7 3e a3 04 9d 3e f4 c6 5e 3e
       0.046700813 0.3585641 0.306676 0.21755582
000060 10 84 de 3e ce b0 de 3d 37 ce 93 bd a1 99 e2 3e
       0.4346013 0.108735666 -0.07217067 0.44257835
000070 6e 7e 39 3e 14 5e e3 bb 3d 8f fc bd b5 f9 1f be
       0.18114635 -0.006938705 -0.12332008 -0.156226
000080 d0 7b d0 3c 86 ae 41 3e 00 a7 1a 3e c0 30 c5 bb
       0.025449663 0.18914232 0.15102768 -0.0060177743
000090 28 a6 0b be b0 79 8f 3e 32 38 a6 3e 98 c2 25 bc
       -0.13637602 0.28022528 0.3246475 -0.010117196
0000a0 bc 6f e8 bd 20 e4 da bb cc 44 a2 3e 94 c6 00 3f
       -0.11349437 -0.0066800267 0.31693113 0.50303006
0000b0 85 c9 31 3e 62 0c 6d 3e a6 42 dd 3e e9 4f a5 3e
       0.1736203 0.23149255 0.4321491 0.3228753
0000c0 90 2e ce bc 34 3e af 3e 0c d7 fe bd d0 37 9f 3e
       -0.025168687 0.34227145 -0.12443361 0.3109727
0000d0 c9 9b 48 3e aa 38 d9 3e 8e ac c2 3e 7d 1d a4 3e
       0.19590677 0.42426044 0.38022274 0.32053748
0000e0 b3 cd c5 3e 03 71 38 bd 3d dd e7 3e cf e0 3f bd
       0.386335 -0.04502965 0.4528598 -0.046845254
0000f0 cf 1a 31 3e 87 b2 0d 3f b7 bd 08 3e b8 67 7c 3c
       0.17295383 0.55350536 0.1335362 0.015405588
000100 a8 c6 f5 3d 44 ad d2 3d 0e 30 1c 3e a3 cd 3c 3e
       0.12000781 0.10286954 0.15252706 0.18437819
000110 98 f9 4d 3e d3 5a 41 3e 6f f6 06 3f d3 43 7d 3d
       0.20114744 0.18882303 0.5271978 0.06183226
000120 26 98 29 3e 1c 4e 43 3e b0 bf 7a be a5 42 4a 3e
       0.16561946 0.19072765 -0.24487185 0.19751985
000130 24 0f 35 be 32 24 d6 3d be 83 38 3f e1 15 50 3e
       -0.17681557 0.104561225 0.7207602 0.20320846
000140 01 f5 00 3f 4b 73 8c 3e 64 83 b3 3d 9a 98 25 3f
       0.50373846 0.27431712 0.08765295 0.64685977
000150 25 33 da bd 7f 3c c8 3e 4f 4c 0a 3e c0 aa c1 bc
       -0.10654286 0.39108655 0.13505672 -0.02364099
000160 d6 74 6e 3e c6 29 cf 3e b4 48 7d 3d 9c 80 e3 bd
       0.23286757 0.40461558 0.061836913 -0.11108515
000170 9c 5a bf 3e 72 65 1e 3e a0 7c b4 bc 7a 3d 62 3e
       0.37373817 0.15468386 -0.022032082 0.22093764
000180 6d e3 19 be 05 6f e0 3e 40 fe b8 3e e0 43 4b 3e
       -0.15028162 0.438347 0.36131477 0.19850111
000190 d3 2d b4 3e 5d e6 f7 bd e3 68 dd 3e e2 77 c3 3e
       0.3519121 -0.12104485 0.43244085 0.381774
0001a0 f1 35 04 3e af 2b fd bd ca df 63 3e c2 2e 08 3f
       0.12911202 -0.123618476 0.22253338 0.53196347
0001b0 39 97 cd 3e 4d 38 96 3e 32 8f 6c 3e a2 50 b1 3e
       0.40154436 0.2933983 0.231015 0.3463183
0001c0 24 2a dd 3c d8 9c 0c 3f db 32 04 3e 92 2c 42 3d
       0.026997633 0.54926825 0.12910025 0.047405787
0001d0 dc e6 bc 3e ca 95 cd be da 62 3f 3e 8e a8 8b 3e
       0.36894882 -0.40153342 0.18690053 0.27277035
0001e0 8d ec 96 be ce 39 7d 3e 08 b4 bf 3c 02 4c 9b 3e
       -0.2947735 0.24729082 0.023401275 0.30331427
0001f0 6c b6 95 3e 1d ed 20 3e 66 a0 e2 3d 38 85 23 3d
       0.2924074 0.15715452 0.1106575 0.03992197

onnx::Conv_624 f4 [128]
000000 78 b9 07 bd d6 da 99 be 22 dd e4 3e 55 82 36 3e
       -0.03313586 -0.3004977 0.4469996 0.17823155
000010 ae 6f 2d be c0 52 bc 3f 74 8a a1 be 1c 53 c5 3d
       -0.16937134 1.4712753 -0.31550944 0.096349925
000020 00 50 f0 bd 0c 88 27 3d af 5e 21 3f a7 42 9f 3d
       -0.11734009 0.04090123 0.630351 0.07776385
000030 56 27 09 bf c0 d9 dc 3e a6 cd 8e bd 4b 19 c2 3e
       -0.53575647 0.4313488 -0.06972818 0.37909922
000040 f1 c7 76 3f a3 b6 f1 3d f0 fd fa 3e 6c 29 16 bd
       0.96398836 0.11802413 0.49021864 -0.036660597
000050 a1 df ce 3e 71 06 11 3f 11 2c 2f 3e 35 b1 29 3f
       0.4040499 0.56650454 0.17106654 0.6628602
000060 9c 8e 65 3d 7a cd 3b 3f 0c e1 ae bd d4 d3 1e be
       0.056044206 0.7336041 -0.08539018 -0.15510494
000070 ac 52 39 3d 00 b1 ba bd d8 6c d7 bd d4 ba 3a bd
       0.045244858 -0.09115791 -0.10518807 -0.04558833
000080 6c be 44 3c b4 2d 92 3e ba 29 0c be 1e 18 40 3e
       0.012008291 0.28550494 -0.13687792 0.187592
000090 ce 5f a7 be 69 d9 33 3f 0a db d1 3e 18 70 b8 bc
       -0.3269028 0.70253617 0.40987426 -0.022514388
0000a0 29 f1 39 bd d2 fa 3e bd e6 57 c1 be 0f e8 f2 be
       -0.045396004 -0.04662592 -0.37762374 -0.47442672
0000b0 29 f9 1b 3f 84 48 9e bd c0 b5 a1 bd 08 97 a5 3f
       0.60927063 -0.07728675 -0.07895994 1.2936716
0000c0 f0 63 88 3d 32 62 87 3e 7e b6 f0 bd c8 99 01 3d
       0.066596866 0.26442105 -0.117535576 0.031640798
0000d0 b9 4e 3c bf 48 12 25 3e d9 e8 17 be ae b0 d9 3e
       -0.7355762 0.16120255 -0.14834918 0.42517608
0000e0 bc 3a 7b 3d f7 25 bc 3d c6 19 32 3e 38 19 04 3d
       0.06133531 0.09186929 0.17392644 0.032250613
0000f0 74 50 ab be b6 8b 6f 3f 34 3f 21 3d 4c 6b 9d bd
       -0.33459818 0.93572557 0.039366916 -0.07686481
000100 b6 5d df be c9 a3 1f 3f 75 84 69 3f d8 47 fd 3c
       -0.43626183 0.6235929 0.9121774 0.030918047
000110 7e b6 3c 3e 20 c8 11 3f 37 d1 9f be 2f ac 36 3f
       0.1842899 0.5694599 -0.31214306 0.7135648
000120 44 01 6a be 8b 46 b0 3f b8 d6 f1 be 58 69 15 be
       -0.22852045 1.3771528 -0.4723413 -0.14590967
000130 d8 92 b6 3e 0c c4 8f 3a a2 63 f2 be 8e bc 72 3f
       0.35658908 0.0010968461 -0.4734164 0.9481896
000140 38 7d 66 3f 2f 0b 06 3f ec 4e aa 3e 45 f5 96 be
       0.9003482 0.52360815 0.33263338 -0.29484
000150 82 e9 c5 3e da 21 d6 bd 0c 80 99 3e 30 4a a7 bb
       0.38654715 -0.104556754 0.29980505 -0.0051052794
000160 e8 7b 71 bf ca 1a 46 be 3e dc 8a 3e 32 b8 11 be
       -0.9432969 -0.19346157 0.27121156 -0.14230421
000170 6b a7 5a 3f c5 42 81 3f 5a e4 c9 3e 9f ef bd 3e
       0.8541171 1.0098501 0.3943203 0.3709688
000180 70 e1 8b ba 68 0c 91 3f 29 ee 8e be 62 7f ce be
       -0.0010672044 1.1331911 -0.27916077 -0.4033156
000190 a5 8a 65 be 94 d0 e7 bd 42 bc f4 3e a2 d2 e3 bd
       -0.2241617 -0.1131908 0.4779988 -0.111241594
0001a0 84 c2 d5 3c 80 d8 4b 3c a8 db 43 bd 4e cd 01 3f
       0.026093729 0.012441754 -0.047816902 0.50703895
0001b0 0d 82 ba be 72 18 c3 bd 2a 27 68 bd 80 9e b3 bc
       -0.36427346 -0.09526147 -0.056677975 -0.021926165
0001c0 e7 1b 7f be 1f 19 d6 3e f8 68 13 be a4 c1 fa bd
       -0.24912988 0.4181604 -0.14395511 -0.12243965
0001d0 30 51 28 bf 8b 8e 10 be 5f 2e aa 3e e9 40 ab bd
       -0.6574888 -0.14116876 0.33238503 -0.0836199
0001e0 26 91 10 bf 0c 5e 57 3f 00 1f e4 3b d4 2f 01 3f
       -0.5647148 0.8412788 0.0069617033 0.50463605
0001f0 96 ee e7 be cc 1b 9e 3f af a3 41 bd f6 22 54 3e
       -0.45299214 1.2352233 -0.04727524 0.20716462

onnx::Conv_627 f4 [128]
000000 df 40 a0 3d c5 f5 29 be e4 d4 f8 3d c7 c2 a9 3e
       0.07824873 -0.1659766 0.12149981 0.33156416
000010 35 01 e0 be e0 1c 80 bc 0e 55 58 3e ff f3 4b 3e
       -0.4375092 -0.015638769 0.21126196 0.19917296
000020 48 4f cb 3e ea 18 dc 3e be b6 1a 3e be 61 8a bd
       0.39708924 0.42987758 0.15108773 -0.06756924
000030 23 85 85 bd 4c 01 cc 3e 58 9a 8a bd 05 38 b1 3e
       -0.065195344 0.3984474 -0.0676772 0.34613052
000040 de 98 af be 10 5f 38 3f ad 95 b6 3d f5 27 a2 3d
       -0.34296316 0.72020054 0.08915267 0.079177774
000050 81 d0 04 3e 64 3f a4 3e df 0d 03 be 7b 28 dd 3e
       0.12970163 0.32079613 -0.1279826 0.43194947
000060 e4 f5 6b bd b4 9c 0c bd c0 1e 8b 3e e8 b2 8b 3e
       -0.057607546 -0.03432913 0.27171898 0.27284932
000070 01 b3 bc 3e 4a d3 a8 bd 5d 8f f2 3c ba 29 e1 3e
       0.3685532 -0.08243425 0.029609377 0.43977147
000080 d4 6a da 3c 82 3d 6e 3e 63 52 bc 3e 2b a4 8b 3e
       0.026662268 0.23265651 0.36781606 0.27273688
000090 66 18 46 3e 3a 4a 64 3d c0 68 c7 3e 3b e3 08 3e
       0.19345245 0.05573485 0.38947105 0.13367932
0000a0 8e 37 f3 3d 9e 42 0d 3e d8 c0 7c 3e e2 e3 57 3e
       0.118758306 0.13794944 0.24682939 0.21083024
0000b0 0b 0d 37 3e 34 d0 b4 3e 7c e0 af 3d 00 0a b0 3d
       0.17876069 0.35315096 0.08587739 0.08595657
0000c0 0f 70 4a 3e 56 2c c9 3d 3c 73 23 3e 56 ac 33 be
       0.1976931 0.098229095 0.15961927 -0.1754621
0000d0 92 bf ff 3e 3c 3c c5 bd de eb b3 3e 0a 29 c4 3d
       0.49950844 -0.096306294 0.3514089 0.0957814
0000e0 8d 5a 15 3e 5e 44 b3 3d 68 0d 07 bc 4f f5 ed 3e
       0.14585324 0.087532744 -0.008242942 0.46476218
0000f0 3e a3 a5 3e ff 43 4f be 77 08 e4 3d 57 82 81 bd
       0.32351106 -0.20240782 0.11134427 -0.063236885
000100 88 09 40 3e de 9c 6f 3e 56 fd e3 be 84 63 30 3d
       0.18753636 0.23399684 -0.44529217 0.043063655
000110 38 e6 a3 bb f2 3b ce 3d fc c8 34 3d 0a 21 99 be
       -0.0050018094 0.100700274 0.044136986 -0.2990802
000120 c1 0a 4d 3d 8c 04 b6 3e 0f 8f 71 bd 42 a0 ce bd
       0.050059084 0.35550344 -0.058974322 -0.100891605
000130 e0 d7 74 3e 94 fe 19 3f be 66 e6 be 94 dd 2f 3c
       0.23910475 0.6015408 -0.4500026 0.010733981
000140 24 2a dd 3d 1d d5 24 be 8a e1 36 bd 65 52 7b 3e
       0.10799053 -0.16096921 -0.044648685 0.2454315
000150 c4 94 f0 bc fe e8 1c 3d 60 8b 12 be 60 c1 c7 bc
       -0.029367812 0.038308136 -0.1431098 -0.0243842
000160 2c 46 a1 3d ed a5 c7 3e bd 70 b0 3e 53 85 d9 3e
       0.07874712 0.3899378 0.34461012 0.4248453
000170 6c 6c b1 3e 4d b4 91 3e 6a e3 23 be c6 41 b1 3e
       0.34653032 0.2845787 -0.1600472 0.34620494
000180 8e 6a fb 3e 74 83 f8 3d f2 4f 16 be d4 1d 7b 3e
       0.49104732 0.12134448 -0.14678934 0.24523097
000190 42 7b 61 3e c5 57 ea bd 91 bb 83 3e 1a 10 b1 3e
       0.22019675 -0.11442522 0.2572904 0.34582597
0001a0 a2 9d 53 3e 90 b4 a2 3c 9b db 70 3e 13 1c 79 be
       0.20665601 0.01986149 0.23521273 -0.24327116
0001b0 d0 13 0a 3e 33 b1 d4 3c 76 ca 81 3e e5 27 e4 3d
       0.1348412 0.025963401 0.25349778 0.11140422
0001c0 cc 8d e4 be 9e 7f be 3d 87 7e 9b be 33 e2 10 be
       -0.44639432 0.09301685 -0.3036997 -0.14148788
0001d0 64 fd 79 bd a0 38 1d 3e 2c 8a 1a 3d 06 c9 b5 bd
       -0.061032668 0.15353632 0.037729427 -0.08876233
0001e0 b1 9c d6 be b7 11 d6 3d d3 16 82 be 07 05 ab 3d
       -0.4191642 0.104525976 -0.25408038 0.08350568
0001f0 8f d6 50 3e 93 97 ab 3e 47 47 6e 3e 95 c0 bf bd
       0.20394348 0.3351408 0.23269378 -0.09362904

onnx::Conv_630 f4 [128]
000000 b6 d3 e6 3e 16 d8 19 3f 75 10 76 3f 0a da 99 3f
       0.45083398 0.60095346 0.9611886 1.2019665
000010 60 d7 0e 3c be 89 e6 be be 3a 59 be 13 76 05 3f
       0.008718342 -0.45026964 -0.21213815 0.5213329
000020 2e 1d 4a 3f 00 7b 2e 3a 02 d2 b9 3e ad df b4 3e
       0.78950775 0.00066559017 0.36293036 0.353269
000030 99 a6 aa 3e 1c b4 9e 3e ac ef e8 3e 0e 97 55 3e
       0.3333023 0.30996788 0.45495355 0.20858404
000040 e0 8f 57 3d 35 17 fd 3e d3 6a fe 3e 3c 3a cb bd
       0.052627444 0.49431768 0.49690875 -0.09923217
000050 69 d0 c2 bd ea 19 8e 3f ec 7f e2 3c 6c 4c 8f be
       -0.09512407 1.1101658 0.027648889 -0.27987993
000060 50 86 d8 3d e6 93 9d bd d5 b3 4f 3f aa cd 3f 3f
       0.10572493 -0.07694225 0.81133777 0.74923193
000070 10 ed f2 3e 58 19 0c 3f f0 ac 08 3e 9b fd 20 be
       0.4744649 0.5472617 0.1334722 -0.15721743
000080 54 cc ce 3c e8 25 25 3e 66 fb d2 be cc 5d 84 be
       0.025243916 0.16127741 -0.41207427 -0.2585281
000090 00 c9 a2 3c 87 b9 18 be 97 b8 53 3f 6e 52 b0 3d
       0.019871235 -0.14914523 0.82703537 0.08609472
0000a0 bc 7c 24 3f 5a fe bb be c0 17 76 3f 94 ae 7f be
       0.6425283 -0.36717492 0.9612999 -0.2496894
0000b0 cb e1 31 be 7b 47 b2 3f ed 7e b2 be c2 cf b5 3e
       -0.1737129 1.3928064 -0.34862462 0.3551007
0000c0 49 32 a1 3f 1c bf 5b 3d db ce df 3e 55 f9 09 3f
       1.2593471 0.053649053 0.43712506 0.53896075
0000d0 e6 f9 72 3e 28 9b 28 3f 01 70 bc 3e fe d7 a7 3d
       0.23728141 0.6586175 0.36804202 0.08195494
0000e0 36 b7 26 3f a3 d9 c5 bd 1b f2 83 be 9d fb 32 3f
       0.6512331 -0.096606515 -0.2577065 0.6991518
0000f0 8a 84 12 3f 62 cf cd bd b2 c7 34 be 14 ee 77 3e
       0.5723349 -0.10049321 -0.17654303 0.24211913
000100 b5 58 2f 3f db 2e 0b be 64 2d 82 3e 9e 93 93 be
       0.6849473 -0.13592093 0.25425255 -0.2882356
000110 4e ba 53 3d 43 7c 71 3e 08 d4 15 be 92 ba 46 be
       0.051691346 0.23582558 -0.14631665 -0.19407108
000120 42 15 e4 be fc b5 cf 3e ab 00 b5 be 1c a3 90 bd
       -0.44547468 0.4056853 -0.35352072 -0.07062361
000130 2a 60 9b 3f b2 0d e3 3e 4a 0f 61 bd a8 a2 cb bc
       1.2138722 0.44346386 -0.05494622 -0.024857834
000140 cb 16 68 be 4c fd ce bd 58 d9 a7 be 78 e4 f7 bd
       -0.22664945 -0.10106906 -0.32783008 -0.12104124
000150 bf 43 31 be 24 b7 b6 be 6d f4 e6 3d de 7f ac be
       -0.17311 -0.356866 0.11277089 -0.33691305
000160 ba dc 80 3e 4d 03 b9 3e a8 02 56 3e 6a a8 c1 be
       0.251684 0.3613533 0.20899451 -0.37823802
000170 a6 3f dd 3e c0 7a f7 bd 33 81 d8 3e 6e 5f d5 be
       0.43212622 -0.120839596 0.4228607 -0.4167437
000180 a0 fa b1 3f 3e 8d 1a 3f 19 35 18 bd a5 ab 6c 3f
       1.390461 0.6037177 -0.037160013 0.9244941
000190 b6 9b 12 3e 25 ec 27 3f 08 b6 58 3f 64 1e 8a 3f
       0.14317212 0.655947 0.8465276 1.0790524
0001a0 8c f2 f7 3e 10 66 dd bd 9a 5b 4a 3f 14 50 79 be
       0.48427236 -0.108104825 0.7904602 -0.24346954
0001b0 06 77 15 3f c0 c1 bc 3b fa 13 13 3f c5 6a e7 be
       0.5838474 0.0057604015 0.57452357 -0.45198646
0001c0 2b 69 03 be 0d 62 86 3e d8 d4 ab be 0c b2 62 3f
       -0.12833087 0.26246682 -0.33560824 0.8855293
0001d0 27 b2 17 be a5 55 cb 3e e9 34 af 3e ee f7 2f 3f
       -0.14814053 0.3971378 0.34220055 0.68737686
0001e0 6e 58 f2 3d c2 33 c6 bd 5e 06 f9 bd f0 f2 55 bd
       0.11833273 -0.09677841 -0.121594176 -0.052233636
0001f0 c4 f5 47 3e 4c b1 87 3f f2 59 21 be 54 c2 63 3e
       0.19527346 1.0600982 -0.15756968 0.22242099

onnx::Conv_633 f4 [128]
000000 e2 87 c7 be 0b 72 af bd 94 a7 af bc 62 56 09 be
       -0.38970858 -0.08566674 -0.021442212 -0.13411859
000010 b4 24 aa bd d5 98 b4 bd 32 66 69 be 0b c8 15 3f
       -0.08307782 -0.08818213 -0.2279289 0.58508366
000020 58 e8 ad be 6b 94 d1 be 68 d0 83 be 4e 01 85 3e
       -0.33966327 -0.40933546 -0.2574494 0.25977558
000030 66 32 3b be 65 a5 9f be 20 44 ab ba aa c9 aa bd
       -0.18280944 -0.31180874 -0.0013066567 -0.083392456
000040 c3 dc 82 3e 77 d2 a8 bd 1b 06 1a be e9 fe 4b be
       0.25559053 -0.08243268 -0.15041392 -0.1992146
000050 37 3b 53 bd e0 b6 a2 be 67 2c c8 3e d6 e9 97 bd
       -0.051570144 -0.31780148 0.39096376 -0.074176475
000060 91 2a e5 be a4 dd bd 3e 38 8b bf be a5 3a b0 3e
       -0.44759038 0.3708316 -0.37410903 0.34419742
000070 3c 10 aa be ee 72 20 3d 19 59 9a bd 64 c0 b8 3d
       -0.3321551 0.039172105 -0.07536525 0.090210706
000080 f1 a0 c8 3e 60 90 a7 3c 8b 9b f4 bc 98 bb ab 3d
       0.3918529 0.020454586 -0.029859325 0.0838539
000090 17 54 d5 be 54 81 2b 3e f8 3c 26 be 8c 7a 1b 3e
       -0.41665718 0.16748554 -0.16234195 0.15183467
0000a0 5c fd 8d be df 53 17 3f 24 94 3e be f0 1c 4c 3e
       -0.2773236 0.5911235 -0.18611199 0.19932914
0000b0 c6 11 08 be 6c f0 01 be 46 95 d3 3e e5 cc 91 3e
       -0.1328803 -0.1268937 0.41324824 0.28476635
0000c0 c0 d9 cf 3a 5e 7e 81 3e 80 07 48 bd c6 4f 17 3e
       0.0015857741 0.25291723 -0.048835278 0.14776525
0000d0 c0 4e ef bb d5 45 75 be ea 03 dd 3e f2 1d ed 3e
       -0.007303089 -0.2395242 0.4316705 0.4631191
0000e0 20 83 6f be 3c c1 8f 3d a4 88 83 3e c8 54 23 3e
       -0.23389864 0.070192784 0.25690186 0.1595031
0000f0 ba 86 bf 3e 35 a5 c1 be 65 db 65 3e 27 98 47 bd
       0.37407476 -0.37821355 0.22446974 -0.04872909
000100 d4 13 54 be 40 53 85 3b 40 ff 96 3e 18 c0 ad bc
       -0.20710689 0.004068762 0.29491615 -0.021209762
000110 d3 de 2d 3f d4 47 e2 3e 28 a7 7a bd 60 ff cd 3d
       0.6791813 0.44195426 -0.06119457 0.100584745
000120 c4 1f 3a bd 16 cc f3 3d 1a 5c d3 be c0 94 8a bd
       -0.04544045 0.11904161 -0.41281205 -0.06766653
000130 d7 5b d9 3e 35 68 9e bd 83 36 50 3e 9f 25 82 be
       0.4245288 -0.0773472 0.20333295 -0.25419328
000140 00 61 e5 bb 5c a3 e1 3d 3a 7f 38 3e e0 5d 9e be
       -0.0070000887 0.110174865 0.18017283 -0.30930996
000150 f6 f8 c7 3e 3a c4 95 3e 64 b6 c7 3d d6 49 e0 be
       0.3905713 0.2925127 0.09751585 -0.43806332
000160 e4 6d d9 3d 49 24 23 3e 00 0a f0 bd bc 45 11 bf
       0.10616663 0.1593181 -0.11720657 -0.5674703
000170 7c ba 5c be 60 ab 85 3d d8 2a 3f bd 32 58 04 bf
       -0.21555513 0.06526828 -0.04667172 -0.51697075
000180 fa 89 b9 be 22 94 57 bf e0 c9 d7 bc 35 95 b4 3d
       -0.3623808 -0.8421041 -0.026341379 0.088175215
000190 b8 97 18 3e e0 14 58 3f 50 f5 0a 3f 10 e9 c4 3e
       0.14901626 0.8440685 0.5428057 0.38459063
0001a0 2c 5f 8a 3e a6 05 07 bf b2 a2 55 3e 86 16 8e bd
       0.27025735 -0.52742994 0.20862845 -0.0693789
0001b0 ea 26 77 be 79 06 43 3e aa ee 7f be 3c b1 00 3e
       -0.24135938 0.19045438 -0.24993387 0.1256761
0001c0 19 18 96 bd 43 46 af 3e 56 8e fa 3d cb f3 d7 3d
       -0.07328815 0.34233293 0.1223418 0.10544547
0001d0 c3 b7 60 3e a9 a1 d5 3e 28 c9 79 be f8 7c 63 be
       0.219451 0.417249 -0.24393141 -0.2221564
0001e0 25 04 99 3e d8 c1 dc be e7 3d 89 be 44 b1 14 bd
       0.29885975 -0.4311664 -0.2680504 -0.036301866
0001f0 e3 15 ce bd 0b 7d 95 be 68 f6 d5 3e df 89 4c 3e
       -0.10062768 -0.29196963 0.41789556 0.19974469

onnx::Conv_636 f4 [128]
000000 36 bc 49 3f 82 e0 65 be 92 f2 aa bd d6 b7 c3 be
       0.7880281 -0.22448924 -0.08347048 -0.38226193
000010 bd e6 08 be 60 d7 f1 3c b6 e0 74 be 2d 87 3c be
       -0.1336927 0.029521644 -0.23913845 -0.1841094
000020 e1 7a 80 3d 39 56 21 bf 37 33 38 3e 10 a3 62 bc
       0.06273437 -0.6302219 0.17988287 -0.013832822
000030 29 e4 70 be bf 6b 8b be 60 30 3c be 3e f2 ea 3e
       -0.23524536 -0.2723064 -0.18377829 0.4588794
000040 ca 6c 9b 3f 79 c6 77 be 41 19 42 3e a3 c5 60 be
       1.2142575 -0.24196805 0.18954946 -0.21950392
000050 b2 57 4e bd 15 1d 52 be 03 61 37 3f da 81 84 3f
       -0.0503766 -0.20518906 0.71632403 1.0352128
000060 0a 5f ac 3e fc 79 ad 3f 00 46 99 3c 4c 9f 58 bf
       0.3366626 1.3552852 0.018710136 -0.8461807
000070 16 d0 d9 bd 9c 1e b5 bc db c2 2d be 4e ce ff 3e
       -0.10635392 -0.022109322 -0.16968863 0.49962085
000080 00 3b d4 b9 c3 0e 45 3e 00 b4 0c bd f4 56 d7 be
       -0.0004047975 0.19243912 -0.03435135 -0.42058527
000090 68 2b d6 bd 69 b9 0e 3f 11 ec ba 3d 10 ab 4c be
       -0.10457498 0.55751663 0.09127057 -0.1998713
0000a0 1f 17 9b 3d 08 95 90 bb ed cb 76 bd 92 10 bb be
       0.075727694 -0.004412297 -0.060253073 -0.3653608
0000b0 86 bf 64 be 8e 9d e9 be 65 b5 88 3f c0 bd fc 3b
       -0.22338685 -0.45628017 1.0680357 0.0077130497
0000c0 39 2b e6 bd f0 7f 0e 3f 7d 02 85 3e 3e bc bc 3e
       -0.11238713 0.5566397 0.2597846 0.36862367
0000d0 78 3f 76 3f 8b e3 9b be 5a 53 26 3e 6b 68 a6 3f
       0.96190596 -0.3044704 0.16242734 1.3000616
0000e0 40 03 92 3e 9e 79 1d bf 3e 81 d9 3f a6 99 bf 3f
       0.28518105 -0.615137 1.6992567 1.4968765
0000f0 c5 90 2a 3f 76 17 4a bd c3 25 5a be 20 9b ac bc
       0.6662715 -0.04933878 -0.21303467 -0.021070063
000100 56 74 54 3f 96 3e 2a 3f 47 68 c1 3f 1a e8 b3 bd
       0.82990015 0.6650175 1.5109948 -0.08784504
000110 f6 38 a1 bd 30 4a 90 be 34 8a e2 3e 62 c4 6c bd
       -0.078721926 -0.281816 0.44246066 -0.057804473
000120 90 73 95 3d b3 14 2b 3f 18 33 41 be d2 a6 a7 bd
       0.072974324 0.6682846 -0.18867147 -0.08186115
000130 04 35 e3 3e e8 c1 1d be 5d be 1b 3f 70 02 6d 3c
       0.44376385 -0.15406 0.60837346 0.014465913
000140 60 13 ab bc 05 4f d8 be a2 b8 26 3f bd 80 b0 be
       -0.020883262 -0.42247787 0.6512548 -0.3447322
000150 04 e0 c5 be 2a df dd be 89 ac 87 3d 32 0e 8f 3d
       -0.38647473 -0.43334323 0.06624705 0.069851294
000160 96 09 a5 bd ac e7 da 3e fd a9 00 be d3 40 22 3e
       -0.08058469 0.42754877 -0.12564845 0.15845041
000170 99 cb 23 be 1f 7c d4 bd 40 4e 1b 3e 1f d4 73 3e
       -0.15995635 -0.10375237 0.15166569 0.23811387
000180 80 33 79 ba 4c 17 1f 3e 42 81 43 3f e0 ca 2b 3b
       -0.000950627 0.15536231 0.76369107 0.0026213452
000190 92 7b 22 be 1c 32 f8 3e 72 3e 4d be 0c 0b 35 bd
       -0.15867451 0.4847573 -0.20043352 -0.04419999
0001a0 35 62 9c be 26 65 54 be 1f 35 3f be f0 0c f6 bd
       -0.30543676 -0.2074171 -0.18672608 -0.120141864
0001b0 e8 fb 85 bc 8b c4 2b 3f 31 36 3b 3e 4a 86 19 3f
       -0.01635547 0.67096776 0.18282391 0.59970534
0001c0 36 58 71 3e 46 47 7a 3f bb 6e 0a 3f 7c 62 01 be
       0.23568806 0.97765005 0.5407521 -0.12635225
0001d0 6c cc 39 3d 8c 78 0f 3f 53 3b 05 3e 92 ad 9a 3d
       0.045360968 0.56043315 0.13010912 0.07552637
0001e0 b7 0e b4 3e 35 6d 89 bd ea 15 df bd e0 ba bd bd
       0.35167477 -0.06710283 -0.10892852 -0.09264159
0001f0 04 cb 94 bc 53 c0 b0 3e ec 72 8b 3f 54 ca ac be
       -0.018163212 0.34521732 1.0894446 -0.33748114

onnx::Conv_639 f4 [128]
000000 30 bd 07 be 7b 85 82 3e 9f da b1 3d 2f 9d 45 be
       -0.13255763 0.25492463 0.08684277 -0.19298242
000010 09 dc a2 3e 28 f0 64 be 57 e9 5d 3e 04 30 18 bc
       0.31808499 -0.22357237 0.21671043 -0.009288792
000020 4c 31 3a be 9a 75 4b bd 1e 00 26 be 0d f6 c9 3e
       -0.18182868 -0.0496727 -0.16210982 0.39445534
000030 fb 34 34 be 08 55 53 3e a6 57 be bd c6 0f e9 3d
       -0.17598335 0.20637906 -0.09294061 0.11379962
000040 b7 4c 0f be 92 97 33 3d 50 c8 58 3d 58 b4 a5 3e
       -0.13994108 0.04384572 0.052925408 0.32364154
000050 2e 4c 09 3e 0c 55 83 3e de e9 8e 3e 83 db 96 be
       0.13407966 0.25650823 0.27912802 -0.2946435
000060 f4 3a 87 3e 1a 4d ef 3d 54 1e bc 3d 5d 57 1d 3e
       0.26412165 0.11684628 0.09185472 0.15365358
000070 9e 4b 47 be 6c f2 20 3c de 74 2f 3d ca 8a 04 3f
       -0.1946244 0.009823423 0.042836063 0.51774275
000080 92 5e a9 3e 37 c1 30 3e 3a 88 30 3f ed a7 24 3e
       0.33079964 0.17261206 0.68957865 0.16079684
000090 bc 16 b8 3b fe 3b ee bd b5 f4 16 be 96 80 d1 3e
       0.0056179445 -0.11632536 -0.14741786 0.40918416
0000a0 20 20 6a bd 3a 44 a4 be b4 7f 05 3d 94 9a 89 3d
       -0.057159543 -0.32083303 0.03259249 0.067189366
0000b0 9b 5c cf 3e dc 50 d5 bd 40 00 68 3b ca 9f 03 be
       0.4050034 -0.10415813 0.003540054 -0.12853923
0000c0 a4 99 a9 bd 44 0f 8a bd ea 38 e4 bd 50 59 54 3d
       -0.08281258 -0.06741193 -0.11143668 0.051842988
0000d0 d4 9a 87 3e 62 3b bb be 77 16 9f bd 6e 9a 9c 3c
       0.26485312 -0.36568743 -0.07767957 0.019116607
0000e0 98 63 09 3e 0b 06 b4 3e 52 3d f4 3d 34 9f ad 3e
       0.13416898 0.3516086 0.119257584 0.33910525
0000f0 05 c9 4a be dd 04 95 3e a5 a2 21 be 94 75 f4 3e
       -0.19803245 0.29105273 -0.157847 0.47745955
000100 a8 a8 d7 3e 65 da 2d be c5 03 63 3e b8 51 24 be
       0.42120862 -0.16977842 0.22169407 -0.16046798
000110 4c d4 06 bd 00 50 61 ba 58 76 9e 3d 92 a0 9c be
       -0.032917306 -0.000859499 0.07737416 -0.30591255
000120 62 ee 74 3e c7 38 01 bf 0a f3 c3 3d 68 07 06 bd
       0.23919061 -0.5047726 0.095678404 -0.032721907
000130 72 85 ac 3d 2c 1b c8 be 9a db 9c be 81 f2 18 be
       0.0842389 -0.3908323 -0.30636293 -0.14936258
000140 d2 a3 ae be 2b f1 18 bf 58 ac 4b 3c 08 da 72 bd
       -0.3410936 -0.59742993 0.012431227 -0.059289962
000150 f1 5f 99 bd 24 b9 ac 3e ae 55 72 3c 5c 07 70 be
       -0.074890025 0.33735 0.014790935 -0.23440307
000160 d0 c4 d5 bc 34 00 45 3e 23 0a 92 3d 44 b7 f1 3c
       -0.026094824 0.19238359 0.0713084 0.029506333
000170 87 0c 9e 3e 68 bf b0 3c 18 f3 f7 be 13 0c 28 3f
       0.30868933 0.021575645 -0.48427653 0.65643424
000180 43 f8 47 be ca 85 6c be 22 57 57 3e f6 88 16 be
       -0.19528298 -0.23097911 0.21029332 -0.14700684
000190 10 24 a6 3e c2 25 ce 3e 92 75 7c 3e 20 50 dd 3e
       0.32449389 0.40263182 0.24654225 0.43225193
0001a0 cf d7 6b be 66 bc b7 bd 62 53 88 3c 5e 16 ce bd
       -0.23031543 -0.08971481 0.016641323 -0.1006286
0001b0 74 e5 9e 3c 21 09 2c 3f 3a 62 8b 3d 41 94 ae 3e
       0.019396521 0.6720143 0.068058446 0.34097484
0001c0 ca 1b ef 3c 09 55 a8 3e 84 98 88 3d 86 ee 36 be
       0.029188056 0.32877377 0.06669715 -0.17864427
0001d0 05 b4 9f be cc 91 35 3e 11 20 29 3e 6c 74 cd 3d
       -0.31192032 0.17731398 0.16516139 0.10031971
0001e0 43 33 07 3e 12 fb 06 3f 85 97 9c 3e 30 63 f1 3c
       0.13203149 0.5272685 0.3058435 0.029466242
0001f0 58 92 b3 3e d8 59 ea bd b0 66 0c 3f f4 c6 a7 3d
       0.3507259 -0.114429176 0.5484419 0.08192244

onnx::Conv_642 f4 [128]
000000 d9 ec e9 be f0 63 6c bc 74 42 c6 be ae 73 3d bd
       -0.45688513 -0.014428124 -0.38722575 -0.0462529
000010 3c 05 a4 3c 37 51 82 bd cc c6 33 3f d5 79 2b 3f
       0.020022027 -0.06363147 0.70225215 0.66982776
000020 b2 a7 24 3f fe 1a c6 bd 26 d6 00 be 7c b6 a0 3f
       0.6431838 -0.09673117 -0.12581691 1.255569
000030 84 06 2f 3d b5 25 13 be f4 21 56 3f b6 51 44 3f
       0.042730823 -0.14369853 0.8364556 0.7668718
000040 c9 03 80 3f be 4f e1 3d 64 1e 59 3f fa 05 33 bf
       1.0001155 0.11001538 0.84812 -0.69930995
000050 66 9b 41 3f 99 95 83 bd ac 61 02 40 cd 48 14 3f
       0.75627744 -0.06425018 2.0372114 0.57923585
000060 f8 55 ec bd ec 50 14 3f c4 31 06 be ee c7 b4 be
       -0.11539835 0.57935977 -0.13104922 -0.35308784
000070 32 12 2b be 80 64 f5 3e b4 61 2b 3f 57 e2 45 3f
       -0.1670616 0.47928238 0.6694596 0.7729849
000080 cb c1 b1 3f ac 05 3b bd 9a fc b3 3f 00 2e d7 3e
       1.3887266 -0.045659706 1.4061463 0.42027283
000090 cd 2f fa be c0 f8 f3 3b 62 2d 04 be 08 13 f4 3f
       -0.48864594 0.007445425 -0.12907937 1.9068308
0000a0 84 7c a1 3b b8 dc 2a bc 80 09 e4 bb b5 b0 9d 3d
       0.0049281735 -0.0104286 -0.0069591403 0.0769972
0000b0 ef 03 89 3f 21 8d f9 bc 14 f9 7e bc b0 a4 b2 bd
       1.0704325 -0.030462803 -0.015562315 -0.08722818
0000c0 bd 39 13 3f c8 9d d9 bc 42 41 ff 3e 17 1d fe 3e
       0.57509977 -0.026564494 0.49854475 0.4963157
0000d0 35 4c 8d 3e 2e 3f 61 3e a0 52 80 3c 63 d1 99 be
       0.27597204 0.21996757 0.015664399 -0.30042562
0000e0 19 96 15 be d2 d6 bd 3f e4 de 51 3f 80 33 2c 3f
       -0.14608039 1.4831183 0.8198073 0.6726608
0000f0 c0 b9 fb bb 7e d1 56 3f a0 ef 61 bd 11 5d bd 3f
       -0.0076820552 0.8391341 -0.055160165 1.4794027
000100 1f 85 10 3f 9c 6d 2c 3f b3 8a b8 3d e3 f6 2c 3d
       0.56453127 0.6735475 0.0901083 0.042227637
000110 b1 ea f5 bc cc 57 19 be 98 f0 6e be d6 ef 12 be
       -0.030019136 -0.14974898 -0.23333967 -0.14349303
000120 ab 41 46 3c 36 2d e2 bd e6 b0 99 3f 62 76 6b 3f
       0.012100617 -0.110437796 1.200711 0.9197751
000130 68 b5 13 3e 74 78 c1 3d 11 93 30 3d f0 85 0b 3d
       0.1442467 0.09446803 0.043109003 0.03406328
000140 28 7a f4 3c d0 3b ef bb e8 29 ae bd c4 50 67 3f
       0.029843405 -0.0073008314 -0.08504087 0.90357614
000150 a3 46 06 3e 50 54 38 3d ff 5f 94 3e 88 06 0f 3e
       0.13112883 0.04500228 0.2897949 0.13967335
000160 8e 67 d6 bd 26 5d 16 3f 80 93 6f bc a0 43 8c bb
       -0.1046897 0.58735883 -0.014622569 -0.0042805225
000170 f4 2a 7b 3f 28 5c 3b bd bc ee 11 bd ee 80 09 40
       0.98112416 -0.045742184 -0.035628065 2.1484942
000180 60 85 12 3f 16 31 61 bd e5 35 76 3f 27 af 15 be
       0.57234764 -0.054978453 0.96175987 -0.14617597
000190 ef 9b 2f 3f f5 ee 19 3f a0 4b 56 3f 62 5a 8b 3f
       0.6859731 0.60130244 0.83709145 1.0886958
0001a0 40 9b 35 bc 4d 8c 03 3f f2 b5 3c bd dc 12 64 3e
       -0.011084378 0.51385957 -0.046071954 0.2227282
0001b0 14 ac 23 be de 36 b3 3f de fc e6 bc 9c f9 a4 3f
       -0.15983611 1.4001119 -0.028196748 1.2888675
0001c0 78 0d 23 bd 83 b8 9f 3f 50 fc 66 bf 0d 95 3d be
       -0.039807767 1.2478184 -0.9022875 -0.1851389
0001d0 8a bb 88 3c bc 83 64 3f 32 46 05 3e c0 df a6 be
       0.016690988 0.8926351 0.13015059 -0.32592583
0001e0 4c 20 fe bd 32 a7 07 3e be da a2 3f a8 a0 16 3f
       -0.12408504 0.13247374 1.2723005 0.5883889
0001f0 32 91 31 3e 80 78 1f 3f 6e 4f 62 3e 0b 71 88 bd
       0.17340544 0.62293243 0.22100613 -0.06662186
