weights/quantization/mobilenet0.25_quantized.pth (torch, 689624 bytes, 244 tensors)

body.stage1.0.0.bias f4 [8]
00000000: 0000 0000 0000 0000 0000 0000 0000 0000
00000010: 0000 0000 0000 0000 0000 0000 0000 0000
0.0 0.0 0.0 0.0 0.0 0.0 0.0 0.0

body.stage1.0.1.weight f4 [8]
00000000: 3a47 703f 79e4 113f 405b fa3f 7997 f23f
00000010: 5282 dd3f f647 9e3f a1fa bd3f e39d 9d3e
0.93858683 0.56989247 1.9559097 1.8952476 1.7305396 1.2365711 1.4842111 0.3078452

body.stage1.0.1.bias f4 [8]
00000000: bfe8 953f c4e0 e8be d385 4640 18fd 71bf
00000010: e469 5e40 44b9 3b3f ddba 13be 6347 30bf
1.1711653 -0.45483983 3.101918 -0.94526815 3.475213 0.7332957 -0.14426751 -0.6885893

body.stage1.0.1.running_mean f4 [8]
00000000: 7730 f63e 15a4 e6c0 a6df d2c1 6e3c b641
00000010: 2d6d 0542 cf36 edc0 6a86 b541 1527 03c0
0.4808385 -7.2075295 -26.359203 22.779507 33.356617 -7.4129405 22.690632 -2.0492604

body.stage1.0.1.running_var f4 [8]
00000000: 3152 3d45 b396 a245 1d1c 7347 310a 0047
00000010: 8fc5 be47 bab3 7d46 ef90 a646 616b bb43
3029.137 5202.8374 62236.113 32778.19 97675.12 16236.932 21320.467 374.8389

body.stage1.1.0.bias f4 [8]
00000000: 0000 0000 0000 0000 0000 0000 0000 0000
00000010: 0000 0000 0000 0000 0000 0000 0000 0000
0.0 0.0 0.0 0.0 0.0 0.0 0.0 0.0

body.stage1.1.1.weight f4 [8]
00000000: e974 983f 6c0d 313f 721b ee3f 3bc2 0f40
00000010: f92f 0240 15d7 d63f da17 1440 ff65 e33d
1.1910678 0.69161105 1.8602126 2.24623 2.034178 1.6784388 2.3139558 0.111034386

body.stage1.1.1.bias f4 [8]
00000000: c140 983f 410d 2fbf 6760 2d40 28e8 23be
00000010: f47b 9d3f 197d 383f 5594 8abf eaad e0be
1.1894761 -0.683796 2.709009 -0.1600653 1.2303452 0.72065884 -1.0826517 -0.43882686

body.stage1.1.1.running_mean f4 [8]
00000000: e730 1840 b60f 3dbd 388a 0a40 0d2d 09bf
00000010: d6e3 ef3e 3bc0 11c0 7b7e 5dbf 31cd 4bb7
2.3779848 -0.04615756 2.1646862 -0.5358437 0.46853513 -2.2773578 -0.8652112 -1.2147518e-05

body.stage1.1.1.running_var f4 [8]
00000000: 359a d73f 27a7 a53d bda4 8740 e2c4 2a41
00000010: e640 8540 11c5 8440 8540 d440 69b1 8d39
1.6843935 0.080885224 4.2388597 10.673067 4.164172 4.149056 6.632876 0.00027025797

body.stage1.1.3.bias f4 [16]
00000000: 0000 0000 0000 0000 0000 0000 0000 0000
00000010: 0000 0000 0000 0000 0000 0000 0000 0000
00000020: 0000 0000 0000 0000 0000 0000 0000 0000
00000030: 0000 0000 0000 0000 0000 0000 0000 0000
0.0 0.0 0.0 0.0 0.0 0.0 0.0 0.0
0.0 0.0 0.0 0.0 0.0 0.0 0.0 0.0

body.stage1.1.4.weight f4 [16]
00000000: 9d2a 4c3f 61b6 563f 9c5f 1b3f ac19 413f
00000010: 2f06 0b3f 83a9 6f3f 1e85 183f b7d4 103f
00000020: 01e0 4e3f 1a04 803f 5455 303f 5b1f 353f
00000030: dced 083f 7156 eb3e 916e 6a3f b83f 883f
0.7975252 0.8387204 0.60692763 0.754298 0.5430631 0.9361803 0.5957812 0.5657458
0.8081055 1.0001252 0.688802 0.7075097 0.53487945 0.45964387 0.9157496 1.0644445

body.stage1.1.4.bias f4 [16]
00000000: 3690 423f 7f2c efbe 5322 873f b69f 953f
00000010: 96fb 8b3f f9a3 653e 7dd6 493f 7952 2c3f
00000020: f653 903f c1cf 19bf 133a 983f 6d57 f63e
00000030: 44a2 743f a422 313f 1cf0 973d 2780 c83e
0.760013 -0.46713635 1.055735 1.1689365 1.0936153 0.22425832 0.7884291 0.67313343
1.1275623 -0.6008263 1.1892723 0.48113576 0.955601 0.6919348 0.07418844 0.39160272

body.stage1.1.4.running_mean f4 [16]
00000000: ed9f 08c0 a7eb fd3f 7b8e 3e40 f7a2 59c0
00000010: ee08 0ac0 e43b 99bf 6407 06c0 ceb3 ff3e
00000020: 79c2 6ac0 ad25 07c0 5dd1 1740 aa34 663f
00000030: 4da9 99bf 584e 1540 187c ab3e a7f4 51c0
-2.134761 1.983754 2.9774463 -3.4005716 -2.156795 -1.1971402 -2.094201 0.49941868
-3.6681197 -2.1116745 2.3721535 0.8992411 -1.2004791 2.3329067 0.33493114 -3.2805574

body.stage1.1.4.running_var f4 [16]
00000000: 4017 7840 91e1 b43f bb9f 4940 7720 8740
00000010: 33c0 1240 3deb 0540 004e 1d40 9ab9 0e3f
00000020: dbbc 9140 fe07 0f40 7264 2040 5879 a33f
00000030: d720 ee3f 2550 ff3f 614b fd3e 2a1d bf40
3.876419 1.4131337 3.1503742 4.222713 2.292981 2.0924828 2.4578857 0.55751956
4.5543036 2.2348628 2.5061307 1.2771406 1.8603772 1.9946333 0.49471572 5.97231

body.stage1.2.0.bias f4 [16]
00000000: 0000 0000 0000 0000 0000 0000 0000 0000
00000010: 0000 0000 0000 0000 0000 0000 0000 0000
00000020: 0000 0000 0000 0000 0000 0000 0000 0000
00000030: 0000 0000 0000 0000 0000 0000 0000 0000
0.0 0.0 0.0 0.0 0.0 0.0 0.0 0.0
0.0 0.0 0.0 0.0 0.0 0.0 0.0 0.0

body.stage1.2.1.weight f4 [16]
00000000: c49b 463f 8b66 003f df1b 503f 3836 033f
00000010: 4ce3 453f c346 c63e d8e1 5e3f c523 fe3e
00000020: a5e3 263f dfad 183f d188 8b3f 93df 1f3f
00000030: 5364 fa3e ab1d 1c3f e6e3 283f 1323 263f
0.7758143 0.5015647 0.8129253 0.51254606 0.7729995 0.38725862 0.8706336 0.49636665
0.6519111 0.59640306 1.0901128 0.6245052 0.48904666 0.6098277 0.65972745 0.6489727

body.stage1.2.1.bias f4 [16]
00000000: 3b10 3a3f 6916 953e e947 5b3f 1f13 cb3f
00000010: a0bd 8b3e 34b6 4e3f ee1c e23d aab6 2e3f
00000020: 7dd4 863f 3987 a63e a87b 6a3f bac0 fb3e
00000030: 95b0 6e3e 4aca d53b 283b 883e 752c 933f
0.72681016 0.2911866 0.856566 1.586521 0.2729311 0.8074677 0.11040674 0.68247473
1.0533596 0.32525042 0.91594934 0.49170476 0.23309548 0.006524359 0.26607633 1.1497942

body.stage1.2.1.running_mean f4 [16]
00000000: 8740 e3bf 1227 283e f053 7d3e f9ae ed3d
00000010: 3d5a f1be 2226 af3e 3ad2 f13d b3ac 1f3f
00000020: 3bfa 75bf 9542 ea3d c3df 3fc0 ea07 993e
00000030: 644b e83d afb3 64bd 7a27 423e 1f08 9cbf
-1.7754067 0.16421154 0.24739051 0.11605639 -0.4713916 0.3420878 0.11807676 0.62372893
-0.96084946 0.11438481 -2.9980323 0.2988885 0.113425046 -0.055835422 0.18960372 -1.2189978

body.stage1.2.1.running_var f4 [16]
00000000: b3bb 233f 314b b03e 1997 333f bc33 493f
00000010: 8195 a93e 83bd 3f3e 8127 833e 07f6 5f3e
00000020: 419a 593f 5184 8a3e bb97 1940 546b 163e
00000030: 7a66 943d c3ec 943d 1fa9 783e ca7e 4e3f
0.6395828 0.34432366 0.7015243 0.78594565 0.33121875 0.18724637 0.25616077 0.21871196
0.85001 0.27054074 2.399886 0.1468938 0.07246108 0.07271721 0.24283265 0.80662215

body.stage1.2.3.bias f4 [32]
00000000: 0000 0000 0000 0000 0000 0000 0000 0000
00000010: 0000 0000 0000 0000 0000 0000 0000 0000
00000020: 0000 0000 0000 0000 0000 0000 0000 0000
00000030: 0000 0000 0000 0000 0000 0000 0000 0000
00000040: 0000 0000 0000 0000 0000 0000 0000 0000
00000050: 0000 0000 0000 0000 0000 0000 0000 0000
00000060: 0000 0000 0000 0000 0000 0000 0000 0000
00000070: 0000 0000 0000 0000 0000 0000 0000 0000
0.0 0.0 0.0 0.0 0.0 0.0 0.0 0.0
0.0 0.0 0.0 0.0 0.0 0.0 0.0 0.0
0.0 0.0 0.0 0.0 0.0 0.0 0.0 0.0
0.0 0.0 0.0 0.0 0.0 0.0 0.0 0.0

body.stage1.2.4.weight f4 [32]
00000000: 83b5 2d3f 9e9f 103f 3ffd 013f 5251 f53e
00000010: 412d 0d3f b425 243f eea0 033f b1b3 043f
00000020: 331c e73e 3107 d93e d97e 5a3e 434e 1f3f
00000030: eaae 1e3f 0882 123f c22c 013f 7bc4 ff3e
00000040: 1046 c83e 9afe 0b3f 56eb cf3e b0c5 af3e
00000050: 5ef1 1e3f abb3 883e 6870 153f 5886 333f
00000060: c0db dd3e 52ed dd3e 47e1 863e de36 063f
00000070: 541f f13e ece7 503f 0bdb 2a3f e0a5 be3e
0.6785509 0.56493556 0.5077705 0.47913605 0.55147177 0.6412003 0.51417434 0.5183669
0.45138702 0.423883 0.21337451 0.6222879 0.6198565 0.5722966 0.5045892 0.4995459
0.39115953 0.54685366 0.40609235 0.3433051 0.6208705 0.26699576 0.58374643 0.7012687
0.43331718 0.43345124 0.26343748 0.5242747 0.47094214 0.81603885 0.66740483 0.37235928

body.stage1.2.4.bias f4 [32]
00000000: 2a2d ec3e bfa5 80be 822e 443f 02f6 ec3e
00000010: 9185 393f f857 ec3e 2c5f c83e 5b03 d73e
00000020: b1c3 573f f025 653f fe31 1a3f 23f7 a6bd
00000030: 4bb3 fd3e 049d 053f d61b c03e d7b1 133f
00000040: f429 b53e 9ac5 383f f7ce 8a3e 7d6f e23e
00000050: 6efd 01bc 9415 6f3f 3bf5 833e cc30 0d3f
00000060: 5a3f 01bf a7f3 d93e 6318 4b3f 29aa 193f
00000070: aae9 293f ccec 10bd 7b8b eebc 479c 263f
0.46128207 -0.25126454 0.76633465 0.4628144 0.7246943 0.46160865 0.3913511 0.41994748
0.84282976 0.89511013 0.6023253 -0.08152606 0.49550852 0.5219271 0.37521237 0.5769324
0.3538357 0.72176516 0.27111027 0.44225684 -0.0079339575 0.933923 0.25773033 0.55152583
-0.5048729 0.42568704 0.79334086 0.6002527 0.6637217 -0.035382077 -0.029119244 0.6508221

body.stage1.2.4.running_mean f4 [32]
00000000: 27cf f2bf 3c1a 81bd 0617 07bf 6ad9 9b3f
00000010: a1f0 54bf ef4a 0640 9045 293f 8ef7 ecbe
00000020: 17e4 833e cc3b b53f 2d31 2ebf 74a3 32bf
00000030: 6ce8 ddbe 1bea 82be 6c7a 89bd daed f63e
00000040: d684 653e 269a 75be 9775 173f f124 dcbf
00000050: 9be1 aa3e 46e7 2540 9452 843f aee0 02c0
00000060: 52b2 b43c 8f28 183f 63c6 60be 3b71 27bf
00000070: 1eeb 773f db91 593f 7b30 013e 3d2e 0bbf
-1.8969468 -0.06303832 -0.52769506 1.2175725 -0.8317967 2.0983236 0.6612177 -0.4628262
0.25759956 1.4158874 -0.68043786 -0.6978066 -0.43341386 -0.25569233 -0.06712803 0.4822834
0.22413954 -0.23984584 0.591638 -1.7198774 0.33375248 2.5922408 1.0337701 -2.0449634
0.022057686 0.5943689 -0.21950679 -0.6540715 0.96843135 0.8498818 0.1261615 -0.5436743

body.stage1.2.4.running_var f4 [32]
00000000: 464d 003f 59cc b03e 8cc6 073f 9e6d b43e
00000010: 7849 133f 5f35 da3e 7879 7c3e 1c1d 993e
00000020: 0054 e43e 0723 f33e 6bb0 453e e1cb cf3e
00000030: 65ec b33e 0dc8 f33e addd af3e e5da a63e
00000040: 183a 843e 0236 933f db88 8c3e 3b45 213e
00000050: 3086 993e 85cf bb3e 1428 e73e 9d76 103f
00000060: 25f5 eb3e ceab ad3e ab49 823e bdd9 283f
00000070: 47c7 a73e cc46 2e3f 7956 123f 15f9 563e
0.5011791 0.34530905 0.53037333 0.3523988 0.5753398 0.42618844 0.24655712 0.2990502
0.44595337 0.4748766 0.1930558 0.40585235 0.35141292 0.47613564 0.34348813 0.32588878
0.25825572 1.1500857 0.27448162 0.15749066 0.2998519 0.36681762 0.45147765 0.5643099
0.46085468 0.3392014 0.2544683 0.6595724 0.32769224 0.6807678 0.57163197 0.20993455

body.stage1.3.0.bias f4 [32]
00000000: 0000 0000 0000 0000 0000 0000 0000 0000
00000010: 0000 0000 0000 0000 0000 0000 0000 0000
00000020: 0000 0000 0000 0000 0000 0000 0000 0000
00000030: 0000 0000 0000 0000 0000 0000 0000 0000
00000040: 0000 0000 0000 0000 0000 0000 0000 0000
00000050: 0000 0000 0000 0000 0000 0000 0000 0000
00000060: 0000 0000 0000 0000 0000 0000 0000 0000
00000070: 0000 0000 0000 0000 0000 0000 0000 0000
0.0 0.0 0.0 0.0 0.0 0.0 0.0 0.0
0.0 0.0 0.0 0.0 0.0 0.0 0.0 0.0
0.0 0.0 0.0 0.0 0.0 0.0 0.0 0.0
0.0 0.0 0.0 0.0 0.0 0.0 0.0 0.0

body.stage1.3.1.weight f4 [32]
00000000: 8243 1a3f 9450 a33e 96da 2e3f 0408 a33e
00000010: dd30 353f 5a29 313f e85b 103f 60fe 203f
00000020: 06c4 ed3e 49aa 213f 2032 053f 5677 163f
00000030: 8597 293f b0eb 003f 2773 fd3e 164e 3b3f
00000040: 3626 fa3e 56b8 ed3e 1195 d53e dcf5 003f
00000050: e516 ed3e c58f 563f 68c2 233f c07c 533f
00000060: 66b9 483e 862c 293f e3c4 c13e 4dca 083f
00000070: 2261 3c3f 2410 1c3f 8144 f43e a602 1a3f
0.6025926 0.31897414 0.68302286 0.31842053 0.70777684 0.6920372 0.5639024 0.62888145
0.46438617 0.6315046 0.5202961 0.5877584 0.66246825 0.5035963 0.49501917 0.73166025
0.48857278 0.464297 0.4171529 0.5037515 0.4630653 0.83813125 0.63968515 0.8261223
0.19601974 0.6608356 0.37845525 0.53433686 0.7358571 0.6096213 0.47708514 0.6016029

body.stage1.3.1.bias f4 [32]
00000000: eacd 1c3f 7480 473f cb7e 653f a693 163f
00000010: 3d06 c63e 648d f9bc dae8 163f 03b6 083f
00000020: 71bf 803f cef2 b73e edfc 26be 454c 9bbd
00000030: ffb7 173f 45da 8e3f fb6b 9f3e cba9 8f3d
00000040: f00c 41be b346 3d3f 67a2 a9bd 0024 02be
00000050: 6eb9 443f 2977 b4be 14d0 2fbd 08e6 fc3e
00000060: dc46 5d3e 1da5 4d3d 6353 50bd dec2 4f3f
00000070: 9773 4ebd 9612 843f 86b8 7b3e b59d 06bd
0.612517 0.7793038 0.89646596 0.58819044 0.38676634 -0.030462928 0.58949053 0.5340273
1.0058423 0.35927433 -0.16307421 -0.07582907 0.5926513 1.116036 0.3113707 0.07014807
-0.18852592 0.73936003 -0.08282929 -0.12709045 0.76845443 -0.35247162 -0.04292305 0.4939425
0.21609062 0.050206292 -0.050860774 0.8115672 -0.050403204 1.0318172 0.24582109 -0.032865245

body.stage1.3.1.running_mean f4 [32]
00000000: 457a a63e 8d2b 9bbd 610c d43d 6ea9 9b3e
00000010: 3a93 223e b7b5 e33e bd51 5ebe 439c 1cbe
00000020: 8840 04bf 112d 81be fc53 36be 6a4c 483d
00000030: 9acd d7be b913 a33b 4500 883e db7c 2ebe
00000040: 5986 393e 13ad 753f 8fd4 08bc f094 98bd
00000050: c5ce 67be 19d1 7ebf 6a2c af3e 55c8 4ebc
00000060: df5e 3e3c e67d 10be c4f4 c6be 6013 0abf
00000070: b5ec 5b3e 9f28 39be 5bae 043e a6c7 02bb
0.3251516 -0.07576666 0.103539236 0.30402702 0.15876475 0.44474575 -0.21710868 -0.15293984
-0.51660967 -0.25229695 -0.17805475 0.048901 -0.4214905 0.0049767164 0.26562706 -0.17039816
0.18117656 0.95967215 -0.008351459 -0.074502826 -0.2263747 -0.9953781 0.34213573 -0.012621005
0.011619299 -0.14110526 -0.38858616 -0.53935814 0.21477015 -0.18081902 0.12957136 -0.0019955426

body.stage1.3.1.running_var f4 [32]
00000000: 7403 853e 81e1 3b3d 3173 8f3e 3ced fc3d
00000010: 3bed 813e 5de9 ac3e 15a5 193e 5dc2 413e
00000020: 7e2a 123e b48d 583e 3229 0c3d 0ab6 ab3d
00000030: 4767 863e 109b 1a3e ad72 263e 6770 813e
00000040: 5330 973d 3337 cf3e 1e3b 3f3d c471 703d
00000050: 61cc 2e3e 9472 af3d 9cdc 153e 6de9 093f
00000060: a129 f93c a40c 2e3e 957f c43c 6319 083e
00000070: 67be 523e 32af b13e 26b2 cd3d d321 c43d
0.25979197 0.045869354 0.28017572 0.12349936 0.25376305 0.33771792 0.1500438 0.189218
0.14274022 0.21147805 0.034218974 0.083843306 0.2625067 0.15098214 0.16254683 0.2528107
0.07382264 0.404718 0.046687238 0.058702245 0.17070152 0.08566776 0.14634937 0.53871804
0.030415358 0.1699701 0.023986617 0.13290934 0.20580445 0.34703976 0.10043745 0.09576764

body.stage1.3.3.bias f4 [32]
00000000: 0000 0000 0000 0000 0000 0000 0000 0000
00000010: 0000 0000 0000 0000 0000 0000 0000 0000
00000020: 0000 0000 0000 0000 0000 0000 0000 0000
00000030: 0000 0000 0000 0000 0000 0000 0000 0000
00000040: 0000 0000 0000 0000 0000 0000 0000 0000
00000050: 0000 0000 0000 0000 0000 0000 0000 0000
00000060: 0000 0000 0000 0000 0000 0000 0000 0000
00000070: 0000 0000 0000 0000 0000 0000 0000 0000
0.0 0.0 0.0 0.0 0.0 0.0 0.0 0.0
0.0 0.0 0.0 0.0 0.0 0.0 0.0 0.0
0.0 0.0 0.0 0.0 0.0 0.0 0.0 0.0
0.0 0.0 0.0 0.0 0.0 0.0 0.0 0.0

body.stage1.3.4.weight f4 [32]
00000000: 4d51 e33e 188e 213f 6b3c 473f ec17 e43e
00000010: cfed ff3e 8bdc 143f 1c0d 743f 0f9c 2d3f
00000020: 257a d13e 32ee 093f 188f ee3e 5c77 073f
00000030: b69c 3e3f 6fd6 313f c0d6 5f3f b38e 593f
00000040: 4043 4e3f df23 223f ef72 733f 3466 d13e
00000050: 0ba5 273f 93d9 2a3f f214 703f b838 e33e
00000060: 1b42 fe3e 817b 153f 1094 5b3f 7df8 2b3f
00000070: dd96 403f 9672 eb3e efff 073f d096 4a3f
0.44397965 0.6310744 0.77826566 0.445495 0.4998612 0.5814902 0.95332503 0.6781625
0.409135 0.5387908 0.46593547 0.529165 0.7445787 0.69467825 0.8743706 0.84983367
0.80571365 0.63335985 0.9509725 0.40898287 0.6548621 0.6673824 0.9378196 0.4437921
0.4965981 0.58391577 0.857728 0.6717604 0.752302 0.4598586 0.531249 0.7913637

body.stage1.3.4.bias f4 [32]
00000000: e1a6 a73d 2dc3 b13d d9dd 3ebe 6903 db3e
00000010: 09cd 083f 27ac a43e 9825 1fbe 437a 693d
00000020: 52fa f33e 8eaa 293e 4050 893f 91f3 073f
00000030: 66ab 303e 942a a6bd 84a1 13be 0254 4d3d
00000040: ad42 74be 6330 103d 1f3e 19be d446 063f
00000050: a266 fb3c 9889 5b3d 50be 6fbe d3e2 0f3f
00000060: b900 233f 457d 62be 057d 3cbd 73ec 1fbe
00000070: 663d 55bd b02f 2f3f b799 333f 2e04 f23e
0.081861265 0.08679805 -0.18639316 0.4277604 0.5343786 0.32162592 -0.15541685 0.057001363
0.47651917 0.16568968 1.0727615 0.5310603 0.17252883 -0.0811359 -0.14417082 0.050128944
-0.2385356 0.035202395 -0.14965104 0.52451825 0.030688588 0.053598017 -0.23412442 0.5620548
0.6367298 -0.22118099 -0.046017665 -0.15617542 -0.052060507 0.6843214 0.70156425 0.47268814

body.stage1.3.4.running_mean f4 [32]
00000000: acb7 a33e 4894 f6be 1508 85bf 527c 9bbe
00000010: 5fe2 72bf d263 95bf e530 aebf 57b8 30bf
00000020: 50fe 423f 1a05 dbbd 1030 b13f c9bf a03e
00000030: 5c79 d63e 37cc 4fbf 22c3 a03f d8bc c93f
00000040: b76d c9bf 024b 0abf 4fad 013f 1338 503f
00000050: ef28 c23e 1389 ce3e 4e01 81be 72bf 373e
00000060: bd67 d8bc c113 06bf b7c5 4dbf ed1e 38bd
00000070: e760 983f 8b82 b8bc e052 393e 799c 91bd
0.31976068 -0.48160005 -1.0393091 -0.30368286 -0.94876665 -1.1671088 -1.3608671 -0.6903128
0.761693 -0.106943324 1.3842793 0.3139632 0.41889465 -0.8117098 1.255955 1.5760756
-1.5736607 -0.540207 0.5065507 0.8133556 0.37921855 0.40338954 -0.25196308 0.17944124
-0.026416654 -0.5237389 -0.80379814 -0.044951368 1.1904572 -0.022523185 0.1809802 -0.07109923

body.stage1.3.4.running_var f4 [32]
00000000: a95d 143e f56d 033f 76fd b13e 5af0 e93d
00000010: 45b0 4f3e b5f5 533e 1622 3f3f d8c9 a53e
00000020: 3c8d 6a3e 76fe 7d3e ee63 1c3f 3646 d73e
00000030: 8d66 b63e da75 ae3e bdac 123f 9f7c 153f
00000040: 9b47 b03e 0db4 833e 4288 373f df8a 4c3e
00000050: 4449 713e fb9f e53e 839c 243f cae1 2f3e
00000060: 91e0 c73e b3e6 583e 4177 0a3f 2c01 953e
00000070: 958a 943e 092d 933e e259 913e 67f4 103f
0.14488854 0.51339656 0.34763688 0.114227965 0.20282085 0.20699199 0.74661386 0.32380557
0.22905439 0.248041 0.6108998 0.42045754 0.35625115 0.3407429 0.5729483 0.5839328
0.3442963 0.25723305 0.7169229 0.1997485 0.23563105 0.44848618 0.6430132 0.17175975
0.39038518 0.21181755 0.5408822 0.29102457 0.2901198 0.28745297 0.28388888 0.5662293

body.stage1.4.0.bias f4 [32]
00000000: 0000 0000 0000 0000 0000 0000 0000 0000
00000010: 0000 0000 0000 0000 0000 0000 0000 0000
00000020: 0000 0000 0000 0000 0000 0000 0000 0000
00000030: 0000 0000 0000 0000 0000 0000 0000 0000
00000040: 0000 0000 0000 0000 0000 0000 0000 0000
00000050: 0000 0000 0000 0000 0000 0000 0000 0000
00000060: 0000 0000 0000 0000 0000 0000 0000 0000
00000070: 0000 0000 0000 0000 0000 0000 0000 0000
0.0 0.0 0.0 0.0 0.0 0.0 0.0 0.0
0.0 0.0 0.0 0.0 0.0 0.0 0.0 0.0
0.0 0.0 0.0 0.0 0.0 0.0 0.0 0.0
0.0 0.0 0.0 0.0 0.0 0.0 0.0 0.0

body.stage1.4.1.weight f4 [32]
00000000: 8656 963e be73 0b3f 732c 2c3f 9fcd 153f
00000010: 9530 243f 2738 de3e 6e5a 383f 7323 283f
00000020: 7333 1d3f d733 173f aa3c 4f3f b2a5 183f
00000030: cdce 393f a272 3c3f c07b 3f3f 0053 423f
00000040: 90d2 263f 3bb3 ed3e b0dc 283f 6381 0f3f
00000050: 0307 993f c801 3a3f ef74 343f f10c 293f
00000060: 6158 1d3f 9b9d 733f c720 033f 3ba0 063f
00000070: ab9f 173f 3a42 473f fedd 383f 4bd6 283f
0.29362887 0.54473484 0.67255324 0.5851688 0.6413663 0.43402216 0.72012985 0.6567909
0.6140663 0.59063476 0.8095194 0.5962783 0.7258118 0.73612416 0.747982 0.759079
0.6516504 0.46425804 0.6596174 0.56056803 1.1955265 0.7265897 0.70490927 0.6603537
0.6146298 0.9516236 0.5122189 0.5258824 0.5922801 0.7783543 0.72213733 0.65951985

body.stage1.4.1.bias f4 [32]
00000000: 1fd5 e33d 1af7 653e 50b4 dc3e 5ebe 563e
00000010: 2e89 983d 49c2 453f b7ab 1b3f d996 1f3f
00000020: 94ea 883e 5e15 203e eb87 a03f 2108 763f
00000030: 3065 173f 8d66 a93e 3141 1a3f 177b 293f
00000040: eecc d03e 7898 823f 5acb 3e3f 78f4 943e
00000050: b229 48bf 7b0a fc3e 52a4 3f3f dadc a0bd
00000060: 05d5 8c3f 2082 5bbf 4968 303f 651a 423f
00000070: d785 083f 2404 29bd a89b 6e3f dd3d 643f
0.11124634 0.22457543 0.43106318 0.20971057 0.0744804 0.7724958 0.6080889 0.6233955
0.2674147 0.15633151 1.2541479 0.96106154 0.59138775 0.33086053 0.60255724 0.66203445
0.4078135 1.020278 0.7452904 0.29092765 -0.7818862 0.49226746 0.7486011 -0.07854624
1.1002508 -0.8574543 0.68909127 0.75821525 0.53329223 -0.041263714 0.9320626 0.89156896

body.stage1.4.1.running_mean f4 [32]
00000000: 6c45 833e 1acd e3be 2ad1 b53e fd7b 983d
00000010: da2b 8cbd 8b0c 3abf fcef 013f 6192 f9be
00000020: 24cb 52bf b073 e7be 5650 24c0 3070 a03f
00000030: aa10 233f 6c25 983e 2404 f53e ee0a 343f
00000040: 941d 9a3e 585b dabe 0a10 0b3f a672 a0be
00000050: 26c4 77be 51ec fb3e 4fbb dc3e fc98 91bd
00000060: 27bb a8bf 9a6c 06be 96ed 16bf 2dd4 82be
00000070: 83e4 cc3e f10a bcbd 5632 b53f f2bf aa3f
0.25638902 -0.44492418 0.35511142 0.07445524 -0.068443015 -0.7267539 0.5075681 -0.4874449
-0.8234122 -0.4520545 -2.5674033 1.2534237 0.636973 0.2971605 0.47854722 0.7032918
0.3010069 -0.42647815 0.5432135 -0.3133747 -0.24195918 0.49203733 0.43111655 -0.071092576
-1.3182114 -0.13127366 -0.5895628 -0.25552502 0.4001809 -0.091817744 1.4155986 1.3339827

body.stage1.4.1.running_var f4 [32]
00000000: 1210 0f3e 6a6e 153e 51f9 023f 9b28 a63d
00000010: ec15 de3d f9e1 e73d 6e0b b13e b8e5 9c3e
00000020: e4e6 763e 07f5 0f3e cdab 513f f5d3 d33e
00000030: f3dd 4b3f 16e6 2a3e e097 013f b672 2b3f
00000040: 5bc0 d43e 9907 403e 1cc5 c33e 8e57 eb3d
00000050: d308 3f3e 6439 243f fc3f dc3e 6458 9c3d
00000060: e4e3 ee3e f67a db3d 7e21 623e 43ce 1d3e
00000070: 6b71 753e ff64 1c3e 23fe 453f 6a5c fa3e
0.13970974 0.14592901 0.51161677 0.08113214 0.10844025 0.11322398 0.34579033 0.30644011
0.24111515 0.14058314 0.8190277 0.41372648 0.7963554 0.16689333 0.5062237 0.6697191
0.41553006 0.18752898 0.3823632 0.11491309 0.1865571 0.6415007 0.43017566 0.07634047
0.46658242 0.10716812 0.22083089 0.15410714 0.23969047 0.15272902 0.77340907 0.4889863

body.stage1.4.3.bias f4 [64]
00000000: 0000 0000 0000 0000 0000 0000 0000 0000
00000010: 0000 0000 0000 0000 0000 0000 0000 0000
00000020: 0000 0000 0000 0000 0000 0000 0000 0000
00000030: 0000 0000 0000 0000 0000 0000 0000 0000
00000040: 0000 0000 0000 0000 0000 0000 0000 0000
00000050: 0000 0000 0000 0000 0000 0000 0000 0000
00000060: 0000 0000 0000 0000 0000 0000 0000 0000
00000070: 0000 0000 0000 0000 0000 0000 0000 0000
00000080: 0000 0000 0000 0000 0000 0000 0000 0000
00000090: 0000 0000 0000 0000 0000 0000 0000 0000
000000a0: 0000 0000 0000 0000 0000 0000 0000 0000
000000b0: 0000 0000 0000 0000 0000 0000 0000 0000
000000c0: 0000 0000 0000 0000 0000 0000 0000 0000
000000d0: 0000 0000 0000 0000 0000 0000 0000 0000
000000e0: 0000 0000 0000 0000 0000 0000 0000 0000
000000f0: 0000 0000 0000 0000 0000 0000 0000 0000
0.0 0.0 0.0 0.0 0.0 0.0 0.0 0.0
0.0 0.0 0.0 0.0 0.0 0.0 0.0 0.0
0.0 0.0 0.0 0.0 0.0 0.0 0.0 0.0
0.0 0.0 0.0 0.0 0.0 0.0 0.0 0.0
0.0 0.0 0.0 0.0 0.0 0.0 0.0 0.0
0.0 0.0 0.0 0.0 0.0 0.0 0.0 0.0
0.0 0.0 0.0 0.0 0.0 0.0 0.0 0.0
0.0 0.0 0.0 0.0 0.0 0.0 0.0 0.0

body.stage1.4.4.weight f4 [64]
00000000: 92b7 733e cb3f 8b3e a529 a03e 8c22 593e
00000010: e7a0 8c3e 041b 3c3e d8ca 633e 696d 533e
00000020: 9bd9 623e d3ff 863e c128 943e 816c 883e
00000030: 0460 823e 16b4 d13d 965f 863e 3932 bf3e
00000040: 2019 8a3e d229 7f3e 22d3 853e 1e6e a93e
00000050: 91a6 853e 3e7d 773e 6dcf 903e 2e33 3b3e
00000060: 0ed5 383e 3124 763e bb2b 213e 87c2 983e
00000070: 535e 433e 0ec7 803e 9b33 9d3e e806 943e
00000080: c038 163e cabf 393e 8690 6a3e 6548 ad3e
00000090: cb13 aa3e 37c6 993e 494c 413e 48fa 873e
000000a0: a54f 4a3e 5a6e a13e eced 653e 4cea 843e
000000b0: 2f2f ec3e 6277 843e 3189 1f3e 5ca1 df3e
000000c0: 43e3 6c3e e3ce b63e 7ece 993e ae7c 7d3e
000000d0: 6ef4 ab3e c26a b23e ab94 443e 4247 6a3e
000000e0: 8011 db3e eb81 b33e 241c 843e 0d2b 683e
000000f0: 14fe 853e b13a 813e 4fac 873e bf67 873e
0.23800495 0.27197108 0.31281772 0.21204585 0.2746651 0.1836968 0.22245347 0.20647205
0.22153322 0.26367053 0.28937343 0.26645282 0.2546388 0.10239427 0.262448 0.37343004
0.26972294 0.24918297 0.26137644 0.33091825 0.26103643 0.2416887 0.28283253 0.18281242
0.18050024 0.24037243 0.15739338 0.29835913 0.1907895 0.25151867 0.30703434 0.2891152
0.14670086 0.18139568 0.22906694 0.33844295 0.33218226 0.30034038 0.18876757 0.26558137
0.19756944 0.31529504 0.22454041 0.25960004 0.46129748 0.25872332 0.15579678 0.43677795
0.23133568 0.35704717 0.30040354 0.24754593 0.33584923 0.34847075 0.19197337 0.22878745
0.4278679 0.35060057 0.2580272 0.22672673 0.2617041 0.2524009 0.2649865 0.2644634

body.stage1.4.4.bias f4 [64]
00000000: c541 b33e d588 7a3e 4500 ae3e f7ae f03e
00000010: 6dfd 2e3e 2886 a23e 6265 103f 78c7 fe3e
00000020: 3026 e63e 1cda fd3e a33f ee3e fe14 e93e
00000030: 19d0 e43e 3e33 9e3e bff1 a13e 11ca 533e
00000040: 0715 fa3e 87d6 bd3e 7656 b53e 5db5 a93e
00000050: 6094 eb3e 0926 d13e 3bb5 bf3e 337b f33e
00000060: d6d2 d63e 6cdb a33e d4f9 f23e 8b47 983e
00000070: f402 ba3e a3a7 383e 8ffb 0b3e 8b88 733e
00000080: 07bc e03e 1c70 ce3e 255e 023f 1228 403e
00000090: ef64 9f3d c0a7 c43c 0931 dc3e 809c 1d3f
000000a0: c4c0 243f ff4a 813e b779 c23e ef05 8d3e
000000b0: ecab 193e dc0c 333f f2ad bb3e d487 1e3e
000000c0: de98 e83e a5eb fc3e e1f5 d63d ba85 fa3e
000000d0: 7329 d4bd d577 a73e 3644 a63e f695 113f
000000e0: d8e7 953e 4e72 df3c 408c 9a3e 13fd 1d3f
000000f0: 2f9d 9a3e b290 713e 928c c23e 882a b73e
0.35011116 0.2446626 0.3398458 0.47008488 0.17088862 0.31742978 0.564047 0.49761558
0.4495101 0.49580467 0.46532926 0.45523828 0.44690016 0.3089847 0.3162975 0.20682551
0.48844168 0.37077734 0.35417527 0.33146182 0.4601164 0.4084933 0.37442955 0.4755493
0.4195773 0.32003343 0.4745623 0.29742083 0.36330378 0.18032698 0.1367018 0.23782556
0.43893453 0.40319908 0.50924903 0.18765286 0.077829234 0.02400577 0.4300616 0.61566925
0.64356637 0.2525253 0.37983486 0.2754359 0.15006989 0.69941497 0.36656147 0.15481502
0.45429128 0.49398533 0.104961164 0.4893015 -0.10359468 0.32708612 0.32473916 0.5686945
0.29278445 0.027276184 0.30185127 0.61714286 0.30198047 0.23590353 0.37997872 0.35774636

body.stage1.4.4.running_mean f4 [64]
00000000: 6fac 38bf 7f4f e63e 8c48 d2be c70f 9ebe
00000010: 51e5 aabe 52a5 d5be 43e5 3abf 6f3d 1b3f
00000020: 13df bebc b853 5f3e d855 333f 7469 5b3f
00000030: 1fe5 92bf 66af 5d3e 52da 233f 0a27 a83e
00000040: 3c80 debe 44d0 a93d 0520 e73f 6031 d93f
00000050: 829d 02bf 4e30 a1be 9d5c 963f 2b4c 063e
00000060: 3764 09bf b6bc 153c 7aa8 fb3e 8e6b 873f
00000070: b034 45bd 5087 923f 0bd9 f5be 9ad3 683f
00000080: 37ed 733e a32a 0bbe 3c63 c53f d30f 83bf
00000090: ed55 4a3d 5c2a eabe ca2b 943e a6fc ea3e
000000a0: 5a0f 3bbf a0d8 873f dcc3 883f 6b97 a0be
000000b0: 7dc5 c3bf 64ee 5bbf b481 4ebf 06d8 fa3e
000000c0: fead bbbe e1a5 353f ac50 81bf dee8 f4bd
000000d0: 3d39 43bf ccc1 5e3f 4904 c23c 9526 263f
000000e0: abfb 8cbe 62d3 3bbf 4862 70bf ac76 ba3d
000000f0: e99e 80bd a380 82bd b402 8f3f ad35 453f
-0.7213811 0.44982526 -0.41070974 -0.30871412 -0.3337808 -0.41727692 -0.73006076 0.60640615
-0.02329973 0.2180928 0.7005286 0.85707784 -1.1476172 0.2164894 0.64005005 0.32842284
-0.4345721 0.08291677 1.8056647 1.6968193 -0.5102159 -0.31482166 1.1747013 0.13114993
-0.5366854 0.0091392305 0.49151975 1.0579698 -0.04814595 1.1447544 -0.48017153 0.9094788
0.23820959 -0.13590483 1.5420909 -1.0239204 0.04939835 -0.45735443 0.28939658 0.4589588
-0.730703 1.0612984 1.0684772 -0.31365523 -1.5294644 -0.8591063 -0.8066666 0.48992938
-0.36656183 0.70956236 -1.0102744 -0.119584784 -0.76259214 0.8701446 0.023683684 0.6490262
-0.27535757 -0.7336942 -0.93899965 0.09104666 -0.0628031 -0.06372192 1.11727 0.7703503

body.stage1.4.4.running_var f4 [64]
00000000: 419f c13e 851c 813e e8ea 093f 4a4f c13e
00000010: a543 c43d 02a6 e13d 8a42 763f 9051 033f
00000020: f95c a13e 0208 173f 86e1 f83e a7fa ab3e
00000030: e21d 323f b2e4 e33d 628a ce3e 68c6 343f
00000040: c937 233f fe9e 863e afa1 2c3f 918a 733f
00000050: 7430 de3e 473e c83e a2c5 3d3f 8615 e33e
00000060: 92ad 913e 8fcc bf3e 1d54 843e b908 c03f
00000070: 493b b43e 3a0e 6f3e 25b0 4b3e fc87 903e
00000080: f6e6 153e ebe4 9e3e 1e19 573f 7c94 b43e
00000090: d1d7 eb3e f22a 423e d2af a73e fd14 9c3f
000000a0: 3202 053f 0452 193f 01cf d03e 5fe3 b83e
000000b0: d663 583f d85e 8e3f 07f4 f03d 2e55 9d3f
000000c0: 9960 ce3e d21f a23f c48d 9d3e 1561 163f
000000d0: c27d bd3d b910 133f 1fd7 4a3e a098 a43f
000000e0: 651c 2d3f cc31 5f3e 5802 383e 8db2 493f
000000f0: 3fc1 bd3e 85a2 383e a01e 173f 8f51 3c3f
0.37816814 0.2521707 0.53874063 0.37755805 0.09583215 0.110179916 0.9619528 0.5129633
0.31516245 0.58996594 0.4860956 0.3358967 0.6957685 0.111276045 0.40339953 0.70615244
0.63756996 0.26293176 0.6743421 0.9513331 0.43396342 0.39110014 0.7412969 0.4435236
0.28452736 0.37460753 0.25845423 1.5002662 0.3520148 0.23345271 0.19891413 0.28228748
0.14638886 0.31034026 0.840227 0.35269535 0.46063092 0.18961695 0.32751328 1.2193905
0.51956475 0.5989077 0.4078293 0.3611097 0.8452734 1.1122694 0.117652945 1.229162
0.40308073 1.2665961 0.3077222 0.58741885 0.09252502 0.5744739 0.19808625 1.2859077
0.6762145 0.2179634 0.17969644 0.7878807 0.37061498 0.18030746 0.59031105 0.7356195

body.stage1.5.0.bias f4 [64]
00000000: 0000 0000 0000 0000 0000 0000 0000 0000
00000010: 0000 0000 0000 0000 0000 0000 0000 0000
00000020: 0000 0000 0000 0000 0000 0000 0000 0000
00000030: 0000 0000 0000 0000 0000 0000 0000 0000
00000040: 0000 0000 0000 0000 0000 0000 0000 0000
00000050: 0000 0000 0000 0000 0000 0000 0000 0000
00000060: 0000 0000 0000 0000 0000 0000 0000 0000
00000070: 0000 0000 0000 0000 0000 0000 0000 0000
00000080: 0000 0000 0000 0000 0000 0000 0000 0000
00000090: 0000 0000 0000 0000 0000 0000 0000 0000
000000a0: 0000 0000 0000 0000 0000 0000 0000 0000
000000b0: 0000 0000 0000 0000 0000 0000 0000 0000
000000c0: 0000 0000 0000 0000 0000 0000 0000 0000
000000d0: 0000 0000 0000 0000 0000 0000 0000 0000
000000e0: 0000 0000 0000 0000 0000 0000 0000 0000
000000f0: 0000 0000 0000 0000 0000 0000 0000 0000
0.0 0.0 0.0 0.0 0.0 0.0 0.0 0.0
0.0 0.0 0.0 0.0 0.0 0.0 0.0 0.0
0.0 0.0 0.0 0.0 0.0 0.0 0.0 0.0
0.0 0.0 0.0 0.0 0.0 0.0 0.0 0.0
0.0 0.0 0.0 0.0 0.0 0.0 0.0 0.0
0.0 0.0 0.0 0.0 0.0 0.0 0.0 0.0
0.0 0.0 0.0 0.0 0.0 0.0 0.0 0.0
0.0 0.0 0.0 0.0 0.0 0.0 0.0 0.0

body.stage1.5.1.weight f4 [64]
00000000: 63af ee3e db51 703e 6a1e e03e 5f40 de3e
00000010: fe0b d33e 4d5b c73e 19ba 123f c316 193f
00000020: 248b 093f bc11 1d3f 44f9 0c3f d64f fe3e
00000030: 6e82 e63e b874 a33e 6087 fc3e bf3e c43e
00000040: 8b7e 233f 8d10 f83e 616c cb3e 63cb cc3e
00000050: 72b8 c33e c86f 1f3f dda3 fd3e 3af8 fb3e
00000060: f8fb bc3e d2a1 b53e c5ec a83e 092c 153f
00000070: d6e4 c63e cb26 e33e 65cb 933e 6695 fb3e
00000080: bcac 703e 275e de3e 43dc eb3e 35bd 563e
00000090: 0a18 b03e e661 ad3e 0eaf 063f 2635 123f
000000a0: 2a48 1c3f 9c4c b73e 0987 0e3f f666 8a3e
000000b0: b7ac d93e 7b47 fd3e fae3 033f 60fe a23e
000000c0: c52d 263f 507f 073f 454c 743e d9ba 173f
000000d0: b01f fc3e 83d5 e63e 7df4 f43e ce01 ef3e
000000e0: 61f8 a83e 9858 ec3e f2db a23e 7dd1 0d3f
000000f0: f136 023f ec1e 0a3f ff55 173f ed8a 373f
0.46618184 0.23468725 0.43773204 0.43408486 0.41220087 0.38936844 0.5731521 0.59800357
0.53727937 0.61355186 0.5506785 0.49670285 0.45021385 0.31924987 0.49322033 0.3832912
0.63864964 0.48450127 0.39731124 0.39998922 0.38226658 0.6227994 0.4953908 0.4921282
0.36910987 0.35475022 0.3299314 0.5827032 0.38846463 0.44365534 0.28866115 0.4913742
0.23503393 0.43431208 0.46066484 0.20970614 0.3439334 0.33863753 0.5261086 0.5711235
0.61047614 0.35800636 0.556748 0.27031678 0.42514583 0.49468598 0.5151974 0.31834698
0.6491359 0.5292864 0.2385722 0.5926948 0.49242926 0.45084772 0.4784278 0.46681064
0.33001998 0.46161342 0.3180843 0.5539778 0.50865084 0.53953433 0.59115595 0.7169636

body.stage1.5.1.bias f4 [64]
00000000: fd69 9b3d 89b1 1b3f d120 ee39 7ee1 623e
00000010: 9b0f ccbd 9fa0 59bd d928 5a3e f45d c8bd
00000020: f4c4 403d 06f5 0abd e6a3 8ebc d3cc d8bd
00000030: f2c4 893e cf8f c0bd 0241 02be ee23 353e
00000040: b846 9ebd 1302 303e 25ff 423e ce4a fe3e
00000050: 625b fd3e 2a88 8abd 7889 453e 0704 1fbd
00000060: 3cfc c93d c838 e03e 58f7 943e 950f dd3d
00000070: d95c 6abd afad d7bd f62a 1b3d fc43 dc3d
00000080: 0caa f43e 7faf c13d 80a0 ed3e 540d 863f
00000090: fb16 ea3b 97b0 71bd 99ec 7b3d bfd0 ba3e
000000a0: d757 913d f156 b43e 2149 05be ce5c 003f
000000b0: b697 4a3e 2189 aa3d cf56 683c 96c5 653e
000000c0: 9170 b3bd 8bdb c33e 0c74 193e 635f 8cbc
000000d0: fd91 b4be 9dd1 993e c69b 07bd e72b 2d3e
000000e0: 2fd9 0f3f f3b0 56bd 2aac 393e 8f04 393e
000000f0: 0b65 28bd 4905 e0bd 266a 5bbe b94b d4bd
0.07588575 0.6081777 0.00045419348 0.22156331 -0.09963914 -0.053131696 0.21304645 -0.09783545
0.04706283 -0.03392508 -0.017412137 -0.10585942 0.2690807 -0.09402429 -0.12720111 0.17689487
-0.07728332 0.17188291 0.19042642 0.49666446 0.49483782 -0.067642525 0.19290721 -0.0388222
0.09862563 0.4379332 0.29094958 0.10793988 -0.057217453 -0.105311744 0.037882768 0.107551545
0.47785985 0.09457301 0.46411514 1.0472817 0.0071438528 -0.0590063 0.061504934 0.36487386
0.07096832 0.3522258 -0.13016178 0.5014161 0.19784436 0.083269365 0.014180853 0.22438654
-0.08761705 0.38253435 0.14985675 -0.017135328 -0.3526763 0.30042735 -0.03310754 0.16911279
0.5619077 -0.052414846 0.18132082 0.18068145 -0.041111987 -0.10938508 -0.21427211 -0.103660055

body.stage1.5.1.running_mean f4 [64]
00000000: 7681 97be 9b5e 8e3c 35f8 b63b b946 c3be
00000010: bf77 9e3c 4bf9 853d 0634 12bf d231 d2bc
00000020: 723a 133e 2006 023c cfc3 bdbc a928 793d
00000030: cb7a a03d 68e6 04be 4883 7dbb 6f00 de3d
00000040: 7ae6 b9bb c8ab cf3a 3857 d13e 7ac1 8b3e
00000050: 8851 173e c0b5 2e3c 5d0e 0dbd 5ea3 b0bd
00000060: bac8 b4be fa3b 89be bea8 b9be 67f6 72be
00000070: f033 9d3d 2436 8b3d 4813 ee3c a70d 103e
00000080: 9dfb cbbe 1338 dbbe 5c6e 3abf 1f83 f0bd
00000090: c7bf 013e 8852 df3c 86d1 833c fcb3 28bf
000000a0: 20b1 1abd 096c 213e fb8b 6ebd 09d4 7bbe
000000b0: 262c 933b 5e62 1bbe 294c 9abc 34f8 683e
000000c0: a429 003c d723 56be cc54 823d 2206 c43b
000000d0: cb81 50bd 4957 4abd 0abe 5c3c e430 4bbf
000000e0: f78d cd3d 29ef 0f3d 9326 92be 2f99 0fbf
000000f0: a76f 103e a5a3 8dbb b8c7 1abd 7ba8 c6be
-0.29590958 0.017379096 0.005583788 -0.38139895 0.019344209 0.065416895 -0.5711063 -0.025658522
0.14377764 0.007936031 -0.023164658 0.060829792 0.07835921 -0.12978518 -0.0038682986 0.108399265
-0.005673227 0.0015844041 0.40886855 0.27296048 0.14777195 0.01066345 -0.034437526 -0.0862491
-0.35309392 -0.2680357 -0.36261553 -0.23726808 0.07675922 0.06797436 0.029061928 0.14067708
-0.39840403 -0.4281622 -0.72824645 -0.11743759 0.12670814 0.027261034 0.01609112 -0.65899634
-0.037766576 0.15763868 -0.058238965 -0.24592604 0.004491347 -0.15174243 -0.018835144 0.22750932
0.007822428 -0.2091211 0.0636383 0.0059821764 -0.05090503 -0.049399648 0.013473043 -0.79371476
0.10036843 0.03514019 -0.28545055 -0.56093115 0.14105092 -0.0043224865 -0.037788123 -0.38800415

body.stage1.5.1.running_var f4 [64]
00000000: 8e2f 023d 67de 4b3c c5aa d03c 3601 b13c
00000010: 7c51 f23b 075b a83b 4c6e 7b3d 1d85 a43c
00000020: 061d d73c d133 3f3d 7489 d63c 54fc da3c
00000030: a066 d83c c016 2e3b 3b30 5b3c 816e 943d
00000040: cdc3 583d 8007 9d3c b374 873d b4a5 8f3d
00000050: df47 943c d724 e53c 729a c23c 923a 6f3c
00000060: 4299 a03c 734d dd3c 49dc 253c b4c4 6e3d
00000070: a63e 633c 8109 a63c 41c3 a83c 1a68 0e3d
00000080: 48b0 753c 0cde e73c 430b a13d cd50 d13c
00000090: 088c 5e3c 0ba0 f73b 7b96 703c 6176 953d
000000a0: e9e1 ef3c 6019 1c3d 9229 7c3c 06b0 9b3c
000000b0: deb5 b83c d103 cf3c 9404 ee3b dfca 983d
000000c0: 3210 b63c 0e51 4d3d 4f8f 3b3c 7927 3f3d
000000d0: 536b 0d3c 2f9b c63c 79cc 193c 0888 9d3d
000000e0: e164 463d 94b7 853c e0e4 f93c 8dde 1c3d
000000f0: 94b6 f83c 3a17 093c 0c8d 893c 020d 503d
0.031783633 0.012443162 0.025472054 0.021607023 0.0073949676 0.0051378044 0.061384484 0.020083005
0.026258957 0.046680275 0.02618859 0.026731648 0.026416123 0.0026563853 0.013378198 0.072476394
0.052921105 0.019168615 0.066140555 0.07014027 0.018100677 0.027971668 0.023755286 0.014601367
0.019604329 0.02701447 0.010123321 0.05829306 0.013869917 0.020268204 0.020600917 0.034767248
0.014995642 0.028304122 0.07863476 0.025551224 0.013583191 0.0075569204 0.014684315 0.072979696
0.029282527 0.038110137 0.0153907705 0.019004833 0.022547659 0.025270374 0.0072637293 0.074605696
0.02222452 0.050126128 0.011447742 0.046668503 0.008631545 0.02424392 0.009387129 0.076919615
0.04843605 0.016322888 0.030504644 0.03829818 0.030360498 0.008367354 0.01679089 0.050793655

body.stage1.5.3.bias f4 [64]
00000000: 0000 0000 0000 0000 0000 0000 0000 0000
00000010: 0000 0000 0000 0000 0000 0000 0000 0000
00000020: 0000 0000 0000 0000 0000 0000 0000 0000
00000030: 0000 0000 0000 0000 0000 0000 0000 0000
00000040: 0000 0000 0000 0000 0000 0000 0000 0000
00000050: 0000 0000 0000 0000 0000 0000 0000 0000
00000060: 0000 0000 0000 0000 0000 0000 0000 0000
00000070: 0000 0000 0000 0000 0000 0000 0000 0000
00000080: 0000 0000 0000 0000 0000 0000 0000 0000
00000090: 0000 0000 0000 0000 0000 0000 0000 0000
000000a0: 0000 0000 0000 0000 0000 0000 0000 0000
000000b0: 0000 0000 0000 0000 0000 0000 0000 0000
000000c0: 0000 0000 0000 0000 0000 0000 0000 0000
000000d0: 0000 0000 0000 0000 0000 0000 0000 0000
000000e0: 0000 0000 0000 0000 0000 0000 0000 0000
000000f0: 0000 0000 0000 0000 0000 0000 0000 0000
0.0 0.0 0.0 0.0 0.0 0.0 0.0 0.0
0.0 0.0 0.0 0.0 0.0 0.0 0.0 0.0
0.0 0.0 0.0 0.0 0.0 0.0 0.0 0.0
0.0 0.0 0.0 0.0 0.0 0.0 0.0 0.0
0.0 0.0 0.0 0.0 0.0 0.0 0.0 0.0
0.0 0.0 0.0 0.0 0.0 0.0 0.0 0.0
0.0 0.0 0.0 0.0 0.0 0.0 0.0 0.0
0.0 0.0 0.0 0.0 0.0 0.0 0.0 0.0

body.stage1.5.4.weight f4 [64]
00000000: 5086 9c3e 175a 573e ea51 9b3e 34bd ad3e
00000010: 0451 b33e 51f1 b93e 0b11 723e d4fb 7a3e
00000020: 6bdd a13e 2d35 c43e a4a3 9e3e d3de a63e
00000030: e45d 9a3e 0136 853e dc7d c73e 5f37 c13e
00000040: 3636 713e 4b80 993e 24a0 e43e d137 943e
00000050: 1c3e ab3e 397f 973e 5b7e a33e 09a1 953e
00000060: cdb8 b93e 8c0e 8c3e 9e72 de3e 5805 743e
00000070: f176 b93e 5369 c73e ada6 793e 7c0b 4a3e
00000080: c430 d93e 00c9 ad3e b27c 4c3e 43f0 9a3e
00000090: eddf b13e 98f9 ab3e f25b 4b3e a0fd ea3e
000000a0: e256 913e c1e6 be3e 2ba0 773e e8d4 bb3e
000000b0: 4e8d b53e ef95 543e d2dd f83e 0baa ca3e
000000c0: 7b74 d83e bf4a 8e3e 0fb6 573e eb17 bc3e
000000d0: b675 713e 480c ca3e 3397 c63e 2eba 8f3e
000000e0: 8b67 9e3e dbbe e73e 144b e33e 442f 4a3e
000000f0: 8c9c ba3e dab7 393e 550c aa3e e944 b53e
0.30571222 0.2103046 0.30335933 0.33933413 0.35022748 0.36316922 0.23639314 0.24510127
0.3161424 0.3832182 0.30984223 0.32591876 0.30149758 0.26017764 0.3896321 0.37737557
0.23555836 0.29980692 0.44653428 0.28948835 0.33445823 0.2958925 0.3193234 0.29224423
0.36273804 0.27354848 0.4344682 0.23830163 0.36223558 0.38947544 0.24379988 0.19730943
0.42420018 0.33942413 0.19969442 0.3026143 0.34741154 0.33588862 0.19859293 0.45896626
0.283866 0.37285426 0.24182193 0.36685872 0.3545937 0.2076032 0.48606735 0.39582857
0.42276368 0.27791402 0.21065544 0.36736998 0.2358006 0.39462495 0.3878723 0.2807173
0.30938372 0.452628 0.44393218 0.19744593 0.3644756 0.1813654 0.33212534 0.35404137

body.stage1.5.4.bias f4 [64]
00000000: f5a3 823e c194 63be f27b bd3d 60e2 b5bd
00000010: 40ea d43d ef17 27be 5901 be3e d6cf a23e
00000020: c839 c4be 2906 47be 57bb 523e c70a 0d3e
00000030: adf5 493c fac5 eb3e 493a 8dbe f1df a4bd
00000040: 9f67 c83e 813a 7c3e 161b d53a e9ed 113e
00000050: 872e a0be dd74 9bbe a145 b83d 73f1 26be
00000060: 39f7 9ebd 334f 6b3e 6f38 3cbd 5f2d 633e
00000070: 628c 4ebb d63d 0f3e 6a66 c43e 1ba2 083f
00000080: 7c2c da3d 3bdf 523e 2b22 413e a29c e2be
00000090: 6aaa b93e ec6c 2abe d917 a73e c59d aa3c
000000a0: 0f3a 193e 698b 32bc 8472 a03e 6520 31bd
000000b0: cb74 75be 27df 313e 4bad 20be 8ba4 263e
000000c0: 228f de3d 0b85 293e 203c e23d 4bb2 a5bd
000000d0: 8302 b13e 5351 673d 8c04 6cbe 1610 853e
000000e0: e280 8b3e 5bac a1bd 8332 b33d 63be e43e
000000f0: 8718 0abe 38fb 103f 71fa 07be c246 023e
0.25515714 -0.22224714 0.09252156 -0.08881068 0.10396242 -0.16317724 0.37110403 0.3179919
-0.38325334 -0.19435944 0.20579277 0.13773642 0.01232664 0.46049482 -0.2758353 -0.08050526
0.39141557 0.24631692 0.0016258683 0.14250912 -0.31285498 -0.30362597 0.08997656 -0.16303043
-0.07761998 0.22979431 -0.045952257 0.22185276 -0.003151678 0.13988432 0.38359386 0.53372353
0.10653016 0.20592968 0.1886069 -0.44260126 0.36262828 -0.16643113 0.32635382 0.020827183
0.14963554 -0.010897496 0.31337368 -0.043243784 -0.23970334 0.17370282 -0.15691106 0.16273706
0.10867144 0.16554658 0.11046624 -0.08090647 0.3457223 0.05647404 -0.2304861 0.25988835
0.27246767 -0.07894202 0.08749869 0.44676504 -0.13485919 0.5663333 -0.1327913 0.12722304

body.stage1.5.4.running_mean f4 [64]
00000000: 42b5 8d3c e528 c43d 9d25 9d3b 4a00 bf3e
00000010: ea35 90bc 2b20 64bc 0d4e 353f aac6 88bd
00000020: 6e4b 45be 7bd7 c0be bccd 1d3d b5d2 803e
00000030: 01e0 103f 3dfc eb3e aeb5 843d ad42 0a3f
00000040: a101 f33b fc70 013f 0e06 033f d80d dd3e
00000050: 543a 413e b71b 1abf 36c1 27bf 7c10 1f3f
00000060: f03e ffbd 4eb0 20bf 030a a03e a922 153e
00000070: 187d 783f 7d5a 18bf 3f37 debe ba25 14bf
00000080: 773f 9ebe b6d3 c0bd 28e6 12be 1de6 7d3d
00000090: 1ada e0bd 1715 c7be 7ece ad3e 150b 453e
000000a0: 9a72 19bf e522 223f e2bb 4d3e 73fa cabd
000000b0: aaf1 81be fbc2 143e ab8e d3be babd dd3d
000000c0: 96ce 5bbc 73c3 b1be 83e6 59bd 4a36 36be
000000d0: c5b0 c8bd 3d02 13be 2579 7a3f daa2 003d
000000e0: 744f 64bf c847 993d dce4 ecbe 5409 5fbe
000000f0: fefb 4a3e c17b 363e 74ba 393f 8f23 85be
0.017298345 0.095781125 0.0047957436 0.37304908 -0.017603833 -0.013923685 0.7082222 -0.06678517
-0.19267055 -0.376644 0.03852628 0.25160757 0.565918 0.4609088 0.06479965 0.5400799
0.0074159657 0.50563025 0.51181114 0.43174624 0.18869907 -0.6019854 -0.6552919 0.6213453
-0.12463176 -0.6276902 0.31257638 0.14564003 0.9706588 -0.59513074 -0.43401524 -0.57870066
-0.30907795 -0.09415381 -0.1434561 0.06198703 -0.109790996 -0.38883278 0.33946604 0.19242509
-0.59940493 0.63334495 0.20091203 -0.09911051 -0.25379688 0.14527504 -0.41319785 0.10827203
-0.013415953 -0.34719428 -0.05319835 -0.17794147 -0.09799341 -0.14356323 0.978411 0.031405307
-0.89183736 0.07484394 -0.46268356 -0.21780902 0.1982269 0.17820646 0.7255013 -0.26003692

body.stage1.5.4.running_var f4 [64]
00000000: 50b0 213e 79f6 203d cbc0 143e 77af 813e
00000010: 60a8 343e 75c7 f73d bfca 523e ab11 d43d
00000020: 6acd 1c3e 6f3f 093e 9bc8 433e 32f0 073e
00000030: 0595 d83e b17e 5a3e cae9 1b3e 4563 463e
00000040: 1261 e33d a917 ee3d aef8 853e e331 163e
00000050: 17b9 d53d bcfb c83d e345 063e de04 1e3e
00000060: fac7 483e d0f5 1b3e 739b 983e 31a0 333e
00000070: 9c47 333e 863d 243e f41b 063e 472a 233e
00000080: c52c ca3e a3b7 a53e 0920 c73d 4b8b b33d
00000090: 2f5a f63d f6aa b23d eb6b 9a3d 5c0c 023f
000000a0: 0a35 d63d aa3b 803e ae08 da3d 40c1 613e
000000b0: ce57 053e 0bc1 d93d f8df 8a3e 9213 ee3d
000000c0: 4088 bc3e 7967 0a3e 991a ba3d 7bb1 013e
000000d0: 109e 2a3e 7bf7 853e 0f53 f23d 420f b63d
000000e0: c19e b43e abaf 913e bb22 813e 0c6b 9b3d
000000f0: 60cd 713e 7551 203e 6e31 a03e 9c7a 773e
0.15789914 0.039297555 0.1452667 0.25329182 0.17642355 0.1209859 0.20585154 0.103549324
0.15312734 0.13403104 0.19119494 0.13275221 0.42301193 0.21337391 0.15225902 0.19373806
0.11102499 0.116256066 0.2616629 0.14667468 0.10435694 0.098136395 0.13112597 0.15431544
0.19607535 0.15230489 0.29806098 0.17541577 0.17507786 0.16039094 0.13096601 0.15934096
0.3948728 0.32366666 0.09722907 0.087668024 0.1202892 0.087240145 0.07540115 0.5080011
0.10459335 0.2504552 0.10646187 0.22046375 0.13021776 0.10632523 0.27124 0.116248265
0.368227 0.13516034 0.09087104 0.1266536 0.16661859 0.26165375 0.118322484 0.08889629
0.3527737 0.28454337 0.2522181 0.07588777 0.236135 0.15656073 0.31287712 0.24167866

body.stage2.0.0.bias f4 [64]
00000000: 0000 0000 0000 0000 0000 0000 0000 0000
00000010: 0000 0000 0000 0000 0000 0000 0000 0000
00000020: 0000 0000 0000 0000 0000 0000 0000 0000
00000030: 0000 0000 0000 0000 0000 0000 0000 0000
00000040: 0000 0000 0000 0000 0000 0000 0000 0000
00000050: 0000 0000 0000 0000 0000 0000 0000 0000
00000060: 0000 0000 0000 0000 0000 0000 0000 0000
00000070: 0000 0000 0000 0000 0000 0000 0000 0000
00000080: 0000 0000 0000 0000 0000 0000 0000 0000
00000090: 0000 0000 0000 0000 0000 0000 0000 0000
000000a0: 0000 0000 0000 0000 0000 0000 0000 0000
000000b0: 0000 0000 0000 0000 0000 0000 0000 0000
000000c0: 0000 0000 0000 0000 0000 0000 0000 0000
000000d0: 0000 0000 0000 0000 0000 0000 0000 0000
000000e0: 0000 0000 0000 0000 0000 0000 0000 0000
000000f0: 0000 0000 0000 0000 0000 0000 0000 0000
0.0 0.0 0.0 0.0 0.0 0.0 0.0 0.0
0.0 0.0 0.0 0.0 0.0 0.0 0.0 0.0
0.0 0.0 0.0 0.0 0.0 0.0 0.0 0.0
0.0 0.0 0.0 0.0 0.0 0.0 0.0 0.0
0.0 0.0 0.0 0.0 0.0 0.0 0.0 0.0
0.0 0.0 0.0 0.0 0.0 0.0 0.0 0.0
0.0 0.0 0.0 0.0 0.0 0.0 0.0 0.0
0.0 0.0 0.0 0.0 0.0 0.0 0.0 0.0

body.stage2.0.1.weight f4 [64]
00000000: 9262 953e 0b84 813e 6884 c73e 5a49 be3e
00000010: 65ab d43e ba37 803e 8fd2 173f a7f5 dc3e
00000020: 1d10 8e3e 5d16 9e3e d445 c03e 143a 893e
00000030: 9a0f e03e 194e 3c3f b848 7c3e 0adb aa3e
00000040: 91b8 c03e ae1f e83e 1176 de3e 412e 913e
00000050: 8970 893e cdac 1a3e d6ab 993e 039e 903e
00000060: b60d 9d3e 8af5 8e3e 80ff c83e 48a4 123f
00000070: f8bc 9a3e 02ff 903e 0978 b33e b243 ef3e
00000080: f1ef 9e3e 4c07 af3e 93f9 a33e 6d96 593e
00000090: 9f44 dc3e 2393 733e 73df 8e3e 952d 003f
000000a0: 1cd4 e63e 9e05 fe3e 557d a43e b49e a13e
000000b0: 5d5d b63e 80d7 df3e 656a c03e 0cce d63e
000000c0: 5d86 be3e e9db 983e 8fe1 dc3e 55fd da3e
000000d0: 4b76 0c3f b55a 9b3e d255 c03e 2aa9 ba3e
000000e0: 831d dc3e 4b6a bd3e 86b7 c53e 0179 c13e
000000f0: 5734 d13e a9f1 a53e cf80 bb3e 2417 a43e
0.29176766 0.25296053 0.38968205 0.37165338 0.41537014 0.25042516 0.5930566 0.43156168
0.27746668 0.30876437 0.37553275 0.26802123 0.43761903 0.7355667 0.24637115 0.3337024
0.37640813 0.4533667 0.43449453 0.283556 0.2684367 0.15104981 0.30013913 0.28245553
0.30674523 0.27921706 0.3925743 0.57281923 0.30222297 0.28319556 0.35052517 0.46731335
0.31042436 0.34185255 0.32026348 0.21248789 0.43021104 0.23786597 0.27904853 0.5006955
0.45083702 0.4961366 0.3212687 0.31566393 0.35618106 0.437191 0.37581173 0.41954076
0.37211886 0.29855278 0.43140838 0.42771402 0.54868 0.3034264 0.37565476 0.36457187
0.42991266 0.36995158 0.3861658 0.3778763 0.40860245 0.32410935 0.3662171 0.32048905

body.stage2.0.1.bias f4 [64]
00000000: 6cc1 163f 11f6 c2bd 2164 c03e 7deb d53e
00000010: 5518 f73e 6953 1b3e ffe7 75bd 8e6c 93bd
00000020: b9c7 ed3d 2569 563e 8e22 c03e af98 3e3f
00000030: 6a48 053f e521 003e 2e7e ae3e 796d a33e
00000040: 7b4a eb3d 7be7 4d3c c730 c93e 7d70 b43e
00000050: 47c9 053e deca 8d3e 03fd 283f e1c8 6b3e
00000060: ee1c 8f3e 950a 0d3f 37ef bb3e a674 4d3d
00000070: e466 933e ddaa 433f 545f f43e cc78 41be
00000080: 16f4 043f eeba 4c3f c544 123f 9de4 5a3e
00000090: bd03 c7bd 3cd2 6a3e 19e4 cd3e 8f20 d93e
000000a0: 7648 943d db5e e23e 9a12 d33d 8cd8 f73e
000000b0: a14a 913e f2f4 ebbd 5e5f dc3e 9c45 c7bc
000000c0: d2d3 0c3f 91e4 b13e d843 23be a28b bb3e
000000d0: 0299 433e a930 433f 2d89 cf3d 8c4b b5bd
000000e0: f1e1 f03e 1b66 8d3e cd36 c23e e623 f53c
000000f0: 4fa1 9b3e 10d4 4f3f 9eae 833e c52a fe3e
0.5888889 -0.0951959 0.37576392 0.41781226 0.4826075 0.15168537 -0.0600357 -0.071984395
0.1161036 0.20938547 0.37526363 0.74451727 0.5206362 0.1251293 0.34080642 0.31919459
0.114888154 0.012567396 0.39295027 0.35242072 0.13065062 0.27693838 0.66011065 0.23025848
0.2795176 0.5509427 0.36705944 0.050160073 0.28789437 0.7643259 0.4772898 -0.18893737
0.51934946 0.7997273 0.57136184 0.21376272 -0.0971751 0.2293176 0.40213087 0.42407653
0.07240383 0.44212994 0.10306282 0.484074 0.2837725 -0.11521329 0.4304151 -0.024325185
0.5501071 0.34744695 -0.15943849 0.3662997 0.19101337 0.76246125 0.10133586 -0.088523
0.4704738 0.27616963 0.37932435 0.029924344 0.30396506 0.81182957 0.2571916 0.49642006

body.stage2.0.1.running_mean f4 [64]
00000000: b71c bcbe 1675 3fbb 6877 773e ba88 033e
00000010: 65e5 923e d282 943d b7f7 07bf 3f96 3c3d
00000020: 93c3 19bd 16e5 623d 4038 c4be 1f06 84be
00000030: c857 6c3e 454e 38bf 7cbb ce3c 45e2 0b3e
00000040: 222f 013e 4e15 223c 76d4 683e 8385 6b3e
00000050: b188 3dbc 83c5 babc af55 5ebe bae9 353d
00000060: 53db e33d 23f8 a33e 7f15 373e 0075 aabe
00000070: d0f7 2b3e 758e 933e 7f48 febe c483 3dbf
00000080: 6eaf a2be d1f1 b8be d89e 9cbe caf5 39bd
00000090: dfe5 87bd 994b 2b3d ac4f f93e 9929 a53e
000000a0: c3fa 7f3e b2c4 1fbe edf0 ad3c 5486 223e
000000b0: 110f d33c 257e e63c 3186 f63d ee1f 99bc
000000c0: cef5 a33e c9d3 da3d 94e8 0cbd e152 e0bd
000000d0: 53b6 f0be 3451 85be e5e1 3f3d 1f0f babc
000000e0: e533 003f 1d59 083e d59e 8f3e 0b38 8d3c
000000f0: db1d eb3d e215 61bf 9be1 c03d 2df3 8cbe
-0.36740658 -0.0029214076 0.24166644 0.12845126 0.2869064 0.072515145 -0.5311236 0.046041723
-0.03754003 0.055394255 -0.38324165 -0.2578592 0.23080361 -0.7199443 0.025235884 0.13660534
0.12615636 0.009892775 0.22737297 0.2300015 -0.011568234 -0.022799259 -0.21712373 0.044412352
0.11125817 0.3202525 0.17879294 -0.3329239 0.16793752 0.28819624 -0.49664685 -0.74029183
-0.31774467 -0.3612199 -0.30589938 -0.04540042 -0.06635641 0.041820142 0.48693597 0.322583
0.24998002 -0.15602377 0.021233046 0.15871555 0.02576402 0.028136322 0.12037314 -0.018691983
0.32023472 0.10684926 -0.03440149 -0.10953308 -0.47014102 -0.26038516 0.04684629 -0.022712288
0.50079185 0.13315244 0.28050867 0.017238637 0.11480304 -0.87924016 0.09418031 -0.27529278

body.stage2.0.1.running_var f4 [64]
00000000: fbab 5a3d 8176 5e3a 7a01 9a3d ca0d 3d3d
00000010: 9078 c83d a000 eb3c 7c41 db3c b4ea 8c3c
00000020: 2643 8c3b 35e6 813c a396 873d f600 283d
00000030: cba7 c03d e3c8 c63d 170f 713c 6675 413d
00000040: 1665 703c 2938 8c3c 4261 a83d 813a cb3c
00000050: 7119 ad3b 227e ce3b 9d6f 5e3d a0d7 613c
00000060: 3789 833c c1f8 5c3d c5fc 823d a39e 6d3d
00000070: 2655 093d a5a7 4d3d 798d 503d c80f 223d
00000080: 5f61 f53c 0338 5b3d 1567 203d 322e 643c
00000090: 5c5e bc3c dea1 173c 43e9 423d c5eb 683e
000000a0: cf2a c03c 2515 8e3d 0912 613c b2f0 da3c
000000b0: 45bd 7e3c 1936 733c 12d9 063d b578 a53c
000000c0: 13f4 b03d 3853 973c a3bb 383c e076 de3c
000000d0: 2ecd 533d a8b1 ff3c bd41 e83c bf1c 603c
000000e0: ba5e f03d 3284 063d 63ed 303d c5dc 693c
000000f0: 1c7c 573d fe48 283d a365 ef3c 48e9 df3c
0.05338667 0.00084862864 0.07519813 0.04615573 0.097886205 0.028686821 0.026764624 0.017201759
0.0042804657 0.015856842 0.066205285 0.04101654 0.09407004 0.09706285 0.01471307 0.0472311
0.014672538 0.017116623 0.082216755 0.02480817 0.005282574 0.0063016573 0.05430566 0.013784319
0.01605664 0.053948168 0.06395868 0.058012616 0.03352847 0.050208706 0.05091617 0.03956583
0.029953657 0.053520214 0.039160807 0.013927029 0.022994213 0.009254901 0.047585737 0.22746189
0.023457913 0.06937627 0.01373721 0.0267261 0.015548055 0.014844441 0.032921858 0.02019916
0.086403035 0.018472299 0.011275205 0.027156293 0.051709346 0.031212643 0.028351659 0.013678729
0.11736818 0.032840915 0.04319514 0.014273827 0.052608594 0.041085236 0.029223269 0.027332917

body.stage2.0.3.bias f4 [128]
00000000: 0000 0000 0000 0000 0000 0000 0000 0000
00000010: 0000 0000 0000 0000 0000 0000 0000 0000
00000020: 0000 0000 0000 0000 0000 0000 0000 0000
00000030: 0000 0000 0000 0000 0000 0000 0000 0000
00000040: 0000 0000 0000 0000 0000 0000 0000 0000
00000050: 0000 0000 0000 0000 0000 0000 0000 0000
00000060: 0000 0000 0000 0000 0000 0000 0000 0000
00000070: 0000 0000 0000 0000 0000 0000 0000 0000
00000080: 0000 0000 0000 0000 0000 0000 0000 0000
00000090: 0000 0000 0000 0000 0000 0000 0000 0000
000000a0: 0000 0000 0000 0000 0000 0000 0000 0000
000000b0: 0000 0000 0000 0000 0000 0000 0000 0000
000000c0: 0000 0000 0000 0000 0000 0000 0000 0000
000000d0: 0000 0000 0000 0000 0000 0000 0000 0000
000000e0: 0000 0000 0000 0000 0000 0000 0000 0000
000000f0: 0000 0000 0000 0000 0000 0000 0000 0000
00000100: 0000 0000 0000 0000 0000 0000 0000 0000
00000110: 0000 0000 0000 0000 0000 0000 0000 0000
00000120: 0000 0000 0000 0000 0000 0000 0000 0000
00000130: 0000 0000 0000 0000 0000 0000 0000 0000
00000140: 0000 0000 0000 0000 0000 0000 0000 0000
00000150: 0000 0000 0000 0000 0000 0000 0000 0000
00000160: 0000 0000 0000 0000 0000 0000 0000 0000
00000170: 0000 0000 0000 0000 0000 0000 0000 0000
00000180: 0000 0000 0000 0000 0000 0000 0000 0000
00000190: 0000 0000 0000 0000 0000 0000 0000 0000
000001a0: 0000 0000 0000 0000 0000 0000 0000 0000
000001b0: 0000 0000 0000 0000 0000 0000 0000 0000
000001c0: 0000 0000 0000 0000 0000 0000 0000 0000
000001d0: 0000 0000 0000 0000 0000 0000 0000 0000
000001e0: 0000 0000 0000 0000 0000 0000 0000 0000
000001f0: 0000 0000 0000 0000 0000 0000 0000 0000
0.0 0.0 0.0 0.0 0.0 0.0 0.0 0.0
0.0 0.0 0.0 0.0 0.0 0.0 0.0 0.0
0.0 0.0 0.0 0.0 0.0 0.0 0.0 0.0
0.0 0.0 0.0 0.0 0.0 0.0 0.0 0.0
0.0 0.0 0.0 0.0 0.0 0.0 0.0 0.0
0.0 0.0 0.0 0.0 0.0 0.0 0.0 0.0
0.0 0.0 0.0 0.0 0.0 0.0 0.0 0.0
0.0 0.0 0.0 0.0 0.0 0.0 0.0 0.0
0.0 0.0 0.0 0.0 0.0 0.0 0.0 0.0
0.0 0.0 0.0 0.0 0.0 0.0 0.0 0.0
0.0 0.0 0.0 0.0 0.0 0.0 0.0 0.0
0.0 0.0 0.0 0.0 0.0 0.0 0.0 0.0
0.0 0.0 0.0 0.0 0.0 0.0 0.0 0.0
0.0 0.0 0.0 0.0 0.0 0.0 0.0 0.0
0.0 0.0 0.0 0.0 0.0 0.0 0.0 0.0
0.0 0.0 0.0 0.0 0.0 0.0 0.0 0.0
